checkpoints/best_energy_model.pth (torch, 109337 bytes, 7 tensors)

mlp.0.weight f4 [128, 124]
0	0xbe937cf1	-0.2880626
1	0x3e8303d3	0.25588855
2	0xbe838ae6	-0.2569191
3	0xbf16ef51	-0.5895892
4	0xbdd9f8b4	-0.106431395
5	0xbd9ce6ec	-0.07661232
6	0xbf24cf37	-0.64378685
7	0x3f03c75f	0.5147609
8	0x3efa9c75	0.48947492
9	0xbe97c4a4	-0.29642212
10	0x3e4167f6	0.18887314
11	0x3b0b4a5b	0.0021254036
12	0x3f0916aa	0.5355021
13	0xbee60c0c	-0.44931066
14	0x3f376891	0.7164393
15	0x3f0bd9b5	0.5462907
16	0xbd74b5bd	-0.05974363
17	0xbf666870	-0.9000311
18	0xbf8c481e	-1.0959508
19	0xbf273210	-0.65310764
20	0xbe171888	-0.14755452
21	0x3ea3caf6	0.31990784
22	0xbed8860f	-0.4228978
23	0x3f407147	0.7517285
24	0x3f0798b4	0.5296738
25	0x3e29a4ec	0.16566819
26	0x3e4d57c9	0.20053019
27	0x3e8f942c	0.28042734
28	0x3ed43350	0.41445398
29	0x3f5cba4d	0.8622177
30	0x3ef28d55	0.47373453
31	0xbf20d76f	-0.62828726
32	0xbe58ed3d	-0.21184249
33	0xbd0c543e	-0.034260027
34	0x3e32639c	0.1742081
35	0x3f5a154d	0.8518875
36	0x3e6106f2	0.21975306
37	0xbe572e0d	-0.2101366
38	0x3f792f56	0.97337854
39	0x3ea7079a	0.32622987
40	0xbd78059f	-0.060552236
41	0x3f09aacb	0.53776234
42	0xbd93e837	-0.07222026
43	0x3e17b32e	0.14814445
44	0xbe2cda2f	-0.16880105
45	0x3e51edc0	0.2050085
46	0x3f2087f2	0.62707436
47	0xbed81202	-0.4220124
48	0xbf7bc44e	-0.9834641
49	0xbea34f17	-0.31896278
50	0x3e16f96d	0.14743586
51	0xbf291120	-0.66041756
52	0x3daf7d25	0.08568791
53	0xbf1469db	-0.5797402
54	0xbdd934ad	-0.1060575
55	0x3d1c9b24	0.03823389
56	0x3da0624d	0.078312494
57	0xbe1ae90b	-0.15127961
58	0xbd324b35	-0.043528754
59	0x3f9009a8	1.1252947
60	0xbf32be0d	-0.69821244
61	0xbcdaf109	-0.026726263
62	0xbe628ff9	-0.22125234
63	0xbe872af8	-0.2639997
64	0x3f5d9a6b	0.8656375
65	0xbf0c04cc	-0.5469482
66	0x3e8f01b4	0.27930987
67	0x3e445065	0.19171293
68	0x3f421cbd	0.758251
69	0x3edcc1e8	0.4311669
70	0x3f075057	0.52856964
71	0xbef90c09	-0.48641995
72	0x3dba8a2a	0.09108384
73	0x3e816e82	0.25279623
74	0xbe153a50	-0.14573026
75	0xbf2cc2fd	-0.6748503
76	0xbe8e9cdf	-0.27854058
77	0xbe8252d9	-0.25453833
78	0x3e25f3f0	0.16206336
79	0x3dd9e7ba	0.106399015
80	0xbba7aee5	-0.0051172846
81	0xbe7a14c7	-0.24421988
82	0x3e80d5a4	0.25162995
83	0xbeb06233	-0.3444992
84	0xbe39f9c7	-0.18161689
85	0xbebc04b4	-0.36722338
86	0x3edcf269	0.43153694
87	0x3f22a8ea	0.6353899
88	0x3d25f111	0.040513102
89	0xbf045732	-0.5169555
90	0xbe5c8ec5	-0.21538837
91	0xbe88c5f9	-0.2671354
92	0xbf5744ad	-0.84089166
93	0xbed18c94	-0.40927565
94	0xbd06cc95	-0.03290995
95	0x3e8e09e2	0.27741915
96	0x3cda4f35	0.026649097
97	0xbe1b6716	-0.15176043
98	0xbe1f6510	-0.15565896
99	0xbe9feddf	-0.3123617
100	0xbde6473d	-0.112440564
101	0x3e228868	0.15872347
102	0x3ede6417	0.43435737
103	0xbc267f37	-0.010162166
104	0x3e443e42	0.19164374
105	0xbf136740	-0.5757942
106	0xbeb78770	-0.35845518
107	0x3d3c38f9	0.04595277
108	0xbeab93b3	-0.33511123
109	0x3e9c4838	0.3052385
110	0xbeb4d82d	-0.3532118
111	0xbe57938f	-0.21052383
112	0xbefc9578	-0.49332786
113	0xbd80d2d7	-0.062902145
114	0x3f8bff8c	1.0937362
115	0x3dcc204e	0.09967099
116	0xbf009b34	-0.5023682
117	0xbf14d69e	-0.5813998
118	0x3e8ed196	0.27894276
119	0x3ea84618	0.32865977
120	0xbf55127b	-0.83231324
121	0x3f523b26	0.82121503
122	0xbf1ba45c	-0.6079767
123	0xbe36c587	-0.17848788
124	0xbaf099cf	-0.0018356385
125	0x3ed133ec	0.40859926
126	0x3f2f95ba	0.6858784
127	0xbe947476	-0.28995103
128	0xbe4ff43d	-0.20308013
129	0xbe07ebad	-0.13273497
130	0x3eb14f7a	0.34630948
131	0xbcbdcfce	-0.023170378
132	0xbeba1f9c	-0.3635224
133	0xbf364f62	-0.7121488
134	0xbde78102	-0.11303903
135	0x3f341999	0.7035156
136	0x3f10fcba	0.5663563
137	0x3ed20649	0.4102042
138	0x3ed88709	0.42290524
139	0x3e189038	0.14898765
140	0xbf061c37	-0.523868
141	0x3f0012a9	0.50028473
142	0xbf1a9bf5	-0.6039422
143	0x3e07d799	0.13265838
144	0x3f1f47af	0.62218755
145	0x3f4ac432	0.7920562
146	0xbcd1bd08	-0.025602832
147	0xbe0dd213	-0.13849668
148	0x3ecd4602	0.40092474
149	0x3f016ad7	0.5055365
150	0x3ecf6659	0.40507773
151	0xbe373838	-0.1789254
152	0xbdaf98c7	-0.08574062
153	0xbf509a0b	-0.8148505
154	0x3efba1bd	0.49146834
155	0xbec33813	-0.3812872
156	0xbe5bf64f	-0.21480678
157	0x3e8d1b3a	0.27559835
158	0xbf10ee48	-0.5661359
159	0xbf829f49	-1.020486
160	0xbf4e8d82	-0.80684674
161	0xbe8f1619	-0.27946547
162	0xbf1bd7d8	-0.60876226
163	0xbf155d4c	-0.58345485
164	0x3f0c2e4e	0.54758155
165	0xbef8e789	-0.48614147
166	0xbedf4b9d	-0.43612376
167	0x3e86d08e	0.2633099
168	0xbddc273e	-0.10749672
169	0xbdb81632	-0.089886084
170	0x3cb00510	0.021486789
171	0x3ef16362	0.47146136
172	0x3e4a42d5	0.19752057
173	0xbef5e7c3	-0.48028383
174	0x3e606571	0.21913697
175	0xbd9a780b	-0.07542428
176	0xbd789204	-0.060686126
177	0x3e0541c0	0.13013363
178	0x3f023e82	0.5087663
179	0xbf67e25c	-0.9057977
180	0xbf4dd124	-0.8039725
181	0xbf338e9e	-0.7013949
182	0xbdf7739d	-0.12082598
183	0xbe30e548	-0.17274964
184	0xbea04463	-0.31302175
185	0xbf1f777f	-0.6229171
186	0x3f58a0be	0.84620273
187	0xbdc05b98	-0.0939247
188	0x3e4babcc	0.19889754
189	0x3f18fe0d	0.5976265
190	0x3f26257f	0.64900964
191	0xbe5bf944	-0.21481806
192	0xbe6bd541	-0.23030569
193	0x3f5006a8	0.81260157
194	0xbf51f925	-0.8202079
195	0x3f51526f	0.8176641
196	0xbf209ae7	-0.6273636
197	0x3e9cf03a	0.30652028
198	0x3b011293	0.001969491
199	0xbedc58cc	-0.43036497
200	0x3e3cbb42	0.18430808
201	0xbe5dcefa	-0.21660987
202	0xbc61ae72	-0.013774501
203	0xbb9f6de5	-0.0048653954
204	0x3f221073	0.6330635
205	0xbcd27063	-0.025688356
206	0xbe56db77	-0.20982157
207	0xbe648ea7	-0.22320043
208	0xbc85d646	-0.016337525
209	0x3de1c4e9	0.11023886
210	0xbf7617c2	-0.9613
211	0x3f174abe	0.5909842
212	0xbe8ac072	-0.2709995
213	0xbeccb896	-0.39984578
214	0xbe3a56ec	-0.1819722
215	0xbee77227	-0.4520428
216	0xbe13901c	-0.14410442
217	0xbeb733eb	-0.35781798
218	0xbda7941e	-0.08182548
219	0xbea02738	-0.31279922
220	0xbe73defe	-0.23815534
221	0xbea00df1	-0.31260636
222	0x3f1c47aa	0.6104685
223	0xbea913ae	-0.33022827
224	0xbe915d83	-0.28391656
225	0xbe136b3b	-0.14396374
226	0x3f38511e	0.71998775
227	0xbe289663	-0.16463618
228	0x3ea25228	0.31703305
229	0xbea0e93f	-0.31427953
230	0xbdc254d4	-0.09488836
231	0x3d911dde	0.07085775
232	0xbf284d56	-0.65743005
233	0x3ee83552	0.4535318
234	0xbe1a39dd	-0.15061136
235	0xbe623899	-0.22091903
236	0xbf0bc6e6	-0.5460037
237	0xbea1cc94	-0.31601393
238	0x3f91e225	1.1397139
239	0xbdaff707	-0.085920386
240	0x3f2fe328	0.6870599
241	0x3e0c33c8	0.13691628
242	0xbed43ca3	-0.41452512
243	0x3ee6579a	0.4498871
244	0x3e0f6206	0.14002237
245	0x3e87e46f	0.26541469
246	0xbf06bfcc	-0.5263641
247	0x3e69c342	0.22828391
248	0x3e009b53	0.12559251
249	0x3e3c64f9	0.18397893
250	0x3ea5743f	0.3231525
251	0x3e81c767	0.25347444
252	0xbd90bec0	-0.07067633
253	0x3eec1326	0.4610836
254	0x3cb6b9b9	0.022305356
255	0x3e4624c0	0.19349957

mlp.0.bias f4 [128]
0	0x3d574a49	0.05256108
1	0x3d6b1cfc	0.05740069
2	0xbd978273	-0.07397928
3	0xbda4e88a	-0.08052166
4	0xbb2da213	-0.002649431
5	0xbd8ad228	-0.067783654
6	0x3d38e40d	0.04513936
7	0xbd5263b4	-0.051364616
8	0x3bf6fe50	0.0075376406
9	0xbd7cfa2c	-0.06176202
10	0xbd05c9c6	-0.03266313
11	0xbd85ad80	-0.06527233
12	0xbc4309a2	-0.011904152
13	0x3d77e794	0.060523584
14	0xbc672d58	-0.014109932
15	0xbda0ffc7	-0.07861286
16	0x3dddbdd6	0.10827224
17	0xbdca5d04	-0.098810226
18	0xbc973880	-0.018459558
19	0xbd129b0f	-0.035792407
20	0xbe0f1eb4	-0.13976556
21	0xbd8e23e4	-0.06940439
22	0xbdd05087	-0.10171609
23	0xbd22fff5	-0.03979488
24	0xbe15538e	-0.14582655
25	0x3b7c4139	0.0038491024
26	0xbcbb7417	-0.022882504
27	0xbb40be65	-0.002941036
28	0x3def1fce	0.11675988
29	0x3c2cfd89	0.010558494
30	0x3d4831cc	0.048875615
31	0xbdfabc58	-0.12242955
32	0xbd412d84	-0.047162548
33	0x3d106688	0.03525403
34	0x3dbd5aef	0.0924586
35	0xbcb45ced	-0.022016967
36	0x3c2746bb	0.010209735
37	0x3d071ab6	0.032984458
38	0x3cf326af	0.029681532
39	0xbd3024bc	-0.043003783
40	0x3d278838	0.040901393
41	0x3d7b7936	0.061394893
42	0x3cc87fdf	0.024475036
43	0xbd9dba79	-0.077015825
44	0xbc8165e0	-0.015795648
45	0xbdb7781e	-0.089584574
46	0x3d121df4	0.035673097
47	0x3bc6421d	0.006050362
48	0xbc18bebc	-0.009322818
49	0xbde0f320	-0.109838724
50	0x3b9db6cb	0.0048130504
51	0x3d94213b	0.07232901
52	0x3ddf30cb	0.108979784
53	0xbbcff57b	-0.006346402
54	0xbdf8ccce	-0.121484384
55	0xbd9e0d0d	-0.07717333
56	0xbd97f63e	-0.07420014
57	0xbd125cd4	-0.03573306
58	0xbd810942	-0.06300594
59	0x3d01d22c	0.031694576
60	0xbd8c82be	-0.068608746
61	0x3df43922	0.1192496
62	0x3c8fb6c4	0.017543204
63	0xbdced88d	-0.100998975
64	0x3d979b50	0.074026704
65	0xbca1e67a	-0.01976322
66	0xbd1a1423	-0.03761686
67	0xbcb03a62	-0.021512214
68	0x3b0ad61d	0.002118475
69	0xbe1fb18d	-0.15595074
70	0xbe1a11ec	-0.15045899
71	0xbdc24659	-0.09486074
72	0xbd96ae4b	-0.073574625
73	0xbd377aac	-0.044794723
74	0xbdbee0d4	-0.09320226
75	0x3d4a3136	0.049363337
76	0xbbc95ebd	-0.006145327
77	0x3d4497f0	0.04799646
78	0xbd98e431	-0.07465399
79	0xbb9d01fc	-0.0047914963
80	0xbd19b3b9	-0.037524913
81	0x3d0a8b2f	0.033824142
82	0x3d365275	0.04451223
83	0x3c46beec	0.01213048
84	0xbddebdc4	-0.10876039
85	0xbd783568	-0.060597807
86	0x3de89c72	0.113579646
87	0xbca7a566	-0.02046461
88	0xbd854d97	-0.0650894
89	0x3d499756	0.04921659
90	0xbdbf45ba	-0.09339471
91	0xbd8de0f3	-0.06927671
92	0xbcbd72ad	-0.02312597
93	0xbd370a04	-0.044687286
94	0xbddc276e	-0.10749708
95	0xbd8b0e07	-0.06789785
96	0xbd39546d	-0.04524653
97	0x3c8b00b6	0.016968112
98	0xbdc61255	-0.09671465
99	0xbb4b0cb0	-0.0030982904
100	0xbd9fc552	-0.07801308
101	0xbcf6c2e1	-0.030122222
102	0x3b486b8b	0.0030581679
103	0xbb93267f	-0.004490673
104	0xbc6a48d0	-0.014299586
105	0x3c0bffec	0.008544903
106	0xbdafa3cb	-0.08576163
107	0x3d9b5e1e	0.07586311
108	0xbc405659	-0.011739337
109	0xbdeebaae	-0.116567
110	0xbdf2071c	-0.11817762
111	0xbda2a12c	-0.07940897
112	0x3bf281dd	0.007400735
113	0x3daf2406	0.08551793
114	0x3d434382	0.047671802
115	0xbd2ef331	-0.042712394
116	0xbd559563	-0.05214442
117	0x3d83d6fa	0.06437488
118	0xbc171f8b	-0.009223829
119	0xbd574c74	-0.052563146
120	0x3ce5d218	0.028054282
121	0x3c9c3cd1	0.019071968
122	0xbddb7077	-0.1071481
123	0x3c0ae570	0.008477554
124	0x3da3612c	0.079775184
125	0x3d73db56	0.059535347
126	0xbd475de7	-0.048673537
127	0xbca37a09	-0.019955652

mlp.2.weight f4 [64, 128]
0	0x3e8d8d4a	0.27646858
1	0x3ecfa73d	0.4055728
2	0xbeeefb92	-0.46676308
3	0xbeb21618	-0.3478248
4	0xbef71d28	-0.48264432
5	0x3e5150b4	0.20440942
6	0x3f0930c0	0.5359001
7	0xbe563257	-0.2091764
8	0x3f182405	0.5942996
9	0x3c23db0f	0.010000958
10	0xbdcf9c42	-0.10137226
11	0x3b85b2e5	0.004080164
12	0xbed1f15c	-0.41004455
13	0x3e94cab8	0.29060912
14	0xbd29660d	-0.04135709
15	0x3d236760	0.039893508
16	0x3eb7e7bf	0.35918996
17	0xbe84aded	-0.25913945
18	0xbe90eb20	-0.28304386
19	0xbec4e168	-0.3845322
20	0xbeb5fea4	-0.35545838
21	0x3dc44242	0.0958295
22	0x3d91774d	0.07102833
23	0xbab9ed60	-0.0014185123
24	0xbe27262e	-0.16323158
25	0xbea9ad58	-0.33140063
26	0xbead7cb2	-0.33884197
27	0xbd2d8d67	-0.04237118
28	0xbdd8de74	-0.105893046
29	0x3e79bd23	0.24388556
30	0xbe2d2e14	-0.16912109
31	0xbe0023d7	-0.12513672
32	0xbe2bbe08	-0.1677171
33	0x3ead83e6	0.33889693
34	0x3f2693d7	0.65069336
35	0x3e309725	0.17245157
36	0x3da26679	0.07929701
37	0xbe2eb972	-0.1706293
38	0xbeeeed11	-0.46665242
39	0x3f430679	0.7618175
40	0x3ea10bff	0.31454465
41	0x3ea66793	0.32500896
42	0x3ead7cb2	0.33884197
43	0xbe6ecb70	-0.23319793
44	0x3e2dd275	0.16974814
45	0xbdc5df4d	-0.09661732
46	0xbefc80ee	-0.49317116
47	0x3e4ce97d	0.20010944
48	0x3f0b6d42	0.5446359
49	0x3d384d1c	0.044995412
50	0xbef469ad	-0.47736874
51	0xbf4cb08c	-0.7995689
52	0x3b66ec0d	0.0035235912
53	0xbea216db	-0.31658062
54	0xbe84803e	-0.2587909
55	0xbe801d2f	-0.25022265
56	0x3e8353bc	0.25649822
57	0xbd4b1819	-0.04958353
58	0xbd0659e7	-0.03280058
59	0xbde01836	-0.10942118
60	0xbde7ab04	-0.113119155
61	0x3ec1c2f6	0.37844056
62	0xbe996bcd	-0.29965058
63	0xbe63ec7c	-0.2225818
64	0xbec6d3fa	-0.388336
65	0xbe2fab51	-0.17155196
66	0xbe1a2a04	-0.1505509
67	0x3ee396ac	0.4445089
68	0xbe2dde33	-0.16979294
69	0xbe180606	-0.14846048
70	0x3c702ad0	0.014658645
71	0xbef76523	-0.4831935
72	0xbe56a5ec	-0.20961732
73	0x3df19b0d	0.11797152
74	0xbeb01b15	-0.34395662
75	0xbee3c735	-0.4448792
76	0x3e49979f	0.19686745
77	0xbee7017d	-0.45118323
78	0xbc83ce74	-0.016089655
79	0x3ce7a771	0.028278084
80	0xbf874840	-1.0568924
81	0xbee3b802	-0.44476324
82	0xbe726954	-0.23672992
83	0xbf1689c3	-0.5880396
84	0xbea3edbe	-0.3201732
85	0xbe844c70	-0.25839567
86	0x3dfaab26	0.12239675
87	0xbf1f8548	-0.62312746
88	0x3e205569	0.15657581
89	0xbf2cf187	-0.6755604
90	0xbe7c87dc	-0.24661201
91	0x3ddf97e4	0.10917643
92	0xbf0f4823	-0.55969447
93	0xbeb9475a	-0.3618725
94	0xbefc23ad	-0.49245968
95	0xbe828542	-0.25492293
96	0x3cea7ca9	0.028623896
97	0xbea04531	-0.3130279
98	0x3e692c9e	0.22770926
99	0x3ea61079	0.32434443
100	0x3de53211	0.1119119
101	0xbd9827c4	-0.0742946
102	0x3ea809b3	0.328199
103	0xbe5a694e	-0.21329233
104	0x3cccf81f	0.025020657
105	0x3d900e45	0.07033972
106	0xbebe4351	-0.37160733
107	0xbdd73023	-0.10507228
108	0xbea28890	-0.31744814
109	0x3e020a55	0.12699254
110	0x3edf84f1	0.43656114
111	0xbf0101b8	-0.5039325
112	0xbe87fc75	-0.26559797
113	0x3eafe522	0.34354502
114	0xbd4efae3	-0.050532233
115	0xbe2383d7	-0.15968262
116	0x3ea8c0a0	0.3295946
117	0xbf225a3b	-0.6341893
118	0xbf37bbd4	-0.7177098
119	0x3d5b50bd	0.053543795
120	0xbe5ecadf	-0.21757077
121	0xbf219a79	-0.6312633
122	0xbeca6a5b	-0.39534268
123	0x3f0135c9	0.50472695
124	0xbc6067f4	-0.013696659
125	0xbf1a5b92	-0.60295975
126	0xbee03665	-0.437915
127	0xbf6bd27f	-0.92118067
128	0xbddf66cf	-0.10908281
129	0xbe915538	-0.2838533
130	0xbf035fa4	-0.5131781
131	0x3b62393a	0.0034518973
132	0x3e8b6fb7	0.2723367
133	0x3e916d3c	0.28403652
134	0x3d6e05ad	0.05811088
135	0x3e4bcc29	0.199021
136	0xbda521ed	-0.080631115
137	0xbf098a73	-0.5372688
138	0x3e1e60d0	0.15466619
139	0xbe8ff6ec	-0.28118074
140	0x3e371824	0.17880303
141	0x3e58ffd6	0.21191344
142	0xbecdd040	-0.40197945
143	0xbe2f12ee	-0.17097065
144	0xbe92b3d1	-0.28652814
145	0x3d9dc937	0.07704394
146	0x3e972296	0.29518574
147	0xbec003f0	-0.37503004
148	0xbe881543	-0.2657872
149	0xbee64d3c	-0.449808
150	0xbe30a4b4	-0.1725033
151	0x3de2c465	0.110726155
152	0xbd61d93c	-0.05513881
153	0xbeca62a8	-0.39528394
154	0xbdfbb8a6	-0.12291078
155	0x3d8da6b7	0.06916564
156	0xbd85ecdc	-0.06539318
157	0xbbc17bd6	-0.005904655
158	0xbedb72cb	-0.42861018
159	0xbf1d2bb1	-0.6139479
160	0xbda22ed1	-0.07919086
161	0xbed9675b	-0.42461666
162	0xbdd10b25	-0.10207204
163	0x3c25103f	0.010074674
164	0xbf20fa6d	-0.6288212
165	0xbe9f4fcf	-0.31115577
166	0xbdcf941f	-0.10135674
167	0xbf157011	-0.58374125
168	0xbe2d3439	-0.16914453
169	0x3e2d03fa	0.16896048
170	0xbf41808a	-0.7558676
171	0x3f1ad85f	0.60486406
172	0xbe3fd6ae	-0.18734238
173	0xbd827357	-0.063696556
174	0xbe082944	-0.13296992
175	0xbe6db7b4	-0.23214608
176	0xbf20dad6	-0.6283392
177	0x3dafffb7	0.085936956
178	0x3ef6854f	0.4814858
179	0x3d1cc485	0.038273353
180	0xbeaec541	-0.34134868
181	0xbf04e4c8	-0.5191159
182	0xbf069525	-0.52571326
183	0x3e155c1f	0.14585923
184	0xbf15e67d	-0.5855482
185	0xbd93a4cf	-0.07209169
186	0x3eb077d3	0.3446642
187	0xbe62bdf6	-0.22142777
188	0xbf5f0b04	-0.87126184
189	0xbe50f621	-0.2040639
190	0xbf0ab1c0	-0.54177475
191	0xbd0d99fb	-0.034570675
192	0xbea4e0a2	-0.3220263
193	0xbf0d757a	-0.5525738
194	0xbe6e3f6c	-0.23266381
195	0xbe4c22dd	-0.19935174
196	0xbf3912df	-0.7229442
197	0x3d712a1c	0.05887805
198	0xbea6feca	-0.32616264
199	0xbee224e3	-0.44168767
200	0x3ee849ef	0.45368907
201	0xbe38490a	-0.17996612
202	0x3dbf7e9a	0.09350319
203	0xbe57dad7	-0.21079575
204	0xbe9f8946	-0.3115942
205	0x3f069942	0.525776
206	0xbdd3de50	-0.10345137
207	0x3d9393bc	0.072059125
208	0xbe23390b	-0.15939729
209	0xbf271869	-0.6527162
210	0x3e471e98	0.19445264
211	0xbe2e10dd	-0.1699862
212	0xbf160f87	-0.5861744
213	0xbf6b44ec	-0.9190204
214	0xbebd5ba0	-0.36983967
215	0x3e854478	0.260288
216	0xbf288413	-0.6582653
217	0xbe62a41c	-0.22132915
218	0x3ea5ebb7	0.324064
219	0xbe2ae3bf	-0.1668844
220	0xbdc0090d	-0.09376726
221	0xbf39a4cc	-0.72517085
222	0xbdc04cbd	-0.09389637
223	0xbee23745	-0.44182792
224	0x3e5c4e1b	0.2151417
225	0x3ee8fa4b	0.45503458
226	0xbf3e63c4	-0.7437098
227	0xbec234d2	-0.37930924
228	0x3e3c6a84	0.18400007
229	0xbe9b6b2b	-0.303552
230	0x3eab31d6	0.3343646
231	0xbef83105	-0.484749
232	0x3cbc1da2	0.022963349
233	0x3d8a4c4e	0.06752835
234	0xbe87444b	-0.2641929
235	0xbef8d855	-0.48602548
236	0xbf31a22d	-0.69388086
237	0xbf175bcc	-0.59124446
238	0x3d03790b	0.032097857
239	0xbe0256b2	-0.12728384
240	0xbdecf7b4	-0.11570683
241	0xbd0ff53d	-0.035145987
242	0xbd853919	-0.06505031
243	0xbd575ac6	-0.052576803
244	0x3d27812c	0.040894672
245	0x3c0b6b22	0.008509429
246	0xbef8a915	-0.485665
247	0xbdba4356	-0.090948746
248	0x3ea296c8	0.31755662
249	0xbea4e888	-0.32208657
250	0xbbf6892c	-0.0075236764
251	0x3e9eca3e	0.31013674
252	0xbcc76482	-0.024339918
253	0x3f15068a	0.582131
254	0x3e068f70	0.13140655
255	0x3e2a125d	0.16608568

mlp.2.bias f4 [64]
0	0xbdc9d1a5	-0.0985444
1	0xbca4adb9	-0.020102369
2	0xbd29361d	-0.041311372
3	0x3e02d5f8	0.12776935
4	0xbc160e01	-0.009158612
5	0xbdde40de	-0.10852216
6	0xbd9c3bdb	-0.07628604
7	0xbe1cac83	-0.15300183
8	0xbdaad25b	-0.08340903
9	0xbd855d26	-0.06511907
10	0xbe21a919	-0.15787162
11	0xbdf116b5	-0.11771909
12	0xbe09ed2f	-0.13469385
13	0xbd2ffe83	-0.04296733
14	0xbe68ad42	-0.22722343
15	0xbe68e736	-0.2274445
16	0x3c1166ec	0.008874636
17	0xbd7a4546	-0.06110122
18	0xbe1938b6	-0.1496304
19	0xbdcc0223	-0.09961345
20	0xbdb653a8	-0.08902675
21	0xbc407bec	-0.011748295
22	0xbd1eb296	-0.03874453
23	0xbd139f9f	-0.0360409
24	0xbe1d0b17	-0.15336262
25	0xbe86d344	-0.26333058
26	0xbdc21754	-0.09477106
27	0xbd0f140c	-0.034931228
28	0x3e48b127	0.19598828
29	0xbd8f06b1	-0.06983698
30	0x3ce98364	0.028505035
31	0xbc67ae32	-0.0141406525
32	0xbc64710d	-0.013942969
33	0x3d7dc998	0.061959833
34	0xbde43d38	-0.11144489
35	0xbae4f656	-0.0017468433
36	0xbe688c52	-0.22709778
37	0xbdd1e132	-0.10248031
38	0xbdf0e5dd	-0.11762593
39	0xbdba5c34	-0.090996176
40	0xbd039e7f	-0.032133576
41	0x3d02dc70	0.031948507
42	0xbe59f5a4	-0.2128511
43	0xbe0ce3d1	-0.1375878
44	0xbe164125	-0.14673288
45	0xbddad905	-0.106859244
46	0xbe03ab0a	-0.12858215
47	0xbe041df6	-0.12902054
48	0x3c1cacd2	0.009562688
49	0xbdce000a	-0.10058601
50	0xbe065eb3	-0.13122062
51	0xbd19f590	-0.037587702
52	0xbe05b063	-0.13055567
53	0xbd2aab6b	-0.041667383
54	0xbddcde95	-0.10784642
55	0x3d65c0ad	0.056091953
56	0x3c0e9094	0.008701462
57	0xbddecd65	-0.1087902
58	0xbc9279ba	-0.01788031
59	0xbd3daadf	-0.046305533
60	0xbe14254e	-0.14467356
61	0xbc9e5efd	-0.019332403
62	0xbd65dbfa	-0.05611799
63	0x3d2e38ec	0.042534754

mlp.4.weight f4 [32, 64]
0	0x3e24ebd3	0.16105585
1	0xbcdaa74a	-0.026691098
2	0xbe00c04b	-0.12573354
3	0xbd91d35e	-0.07120393
4	0xbdbcafdb	-0.09213229
5	0x3deea308	0.116521895
6	0x3d726ad9	0.05918393
7	0xbb9f6331	-0.0048641195
8	0x3da50fba	0.0805964
9	0xbd874c53	-0.066063546
10	0x3d0a52f0	0.0337705
11	0x3ad20859	0.0016024216
12	0xbce82226	-0.028336596
13	0xbb281961	-0.0025649893
14	0xbd2972f3	-0.04136939
15	0xbcb42105	-0.021988401
16	0x3d2fa861	0.042885188
17	0xbeda60b0	-0.42651892
18	0xbc0ff5e4	-0.008786652
19	0xb6e644df	-6.862552e-06
20	0x3cddb5ef	0.027064292
21	0x3dabf4b5	0.083962835
22	0xbe2e474a	-0.17019382
23	0xbcbe7af6	-0.023251992
24	0xbd24f5e9	-0.04027358
25	0x3dace45c	0.084419936
26	0xbce01437	-0.02735339
27	0x3abd8334	0.0014458657
28	0xbe1612d7	-0.14655624
29	0xbd45ea3f	-0.048319098
30	0x3d7fb3c8	0.062427312
31	0xbdbc3301	-0.09189416
32	0xbdefbe2c	-0.11706194
33	0x3c684e18	0.014178775
34	0x3df7ea29	0.121052094
35	0xbca5a821	-0.020221772
36	0x3e0227b6	0.12710461
37	0xbcde23f7	-0.027116759
38	0x3cd58292	0.026063237
39	0xbcf1635e	-0.029466327
40	0xbcbd4f31	-0.02310905
41	0x3d36e88d	0.04465537
42	0x38472910	4.748354e-05
43	0xbcb51c01	-0.02210808
44	0x3da77818	0.08177203
45	0x3d4475b8	0.047963828
46	0x3c1c278c	0.009530913
47	0xbd31c2bf	-0.043398615
48	0x3da7f4ab	0.082009636
49	0x3d815941	0.06315852
50	0x3d9013df	0.0703504
51	0x3e09018d	0.13379498
52	0xbca9a3b3	-0.02070794
53	0x3d12a3c6	0.035800718
54	0x3ccef392	0.025262628
55	0xbdd8364a	-0.1055723
56	0x3bf985c9	0.0076148254
57	0x3d3b6d4f	0.04575854
58	0x3c8f4455	0.017488638
59	0x3d88f023	0.066864274
60	0xbda5aa7c	-0.08089158
61	0xbe7e2b7b	-0.24821274
62	0x3d361809	0.044456515
63	0x3d919dbe	0.07110165
64	0xbd90dc1b	-0.07073232
65	0xbec8cdb5	-0.39219442
66	0xbe2db31c	-0.16962856
67	0xbeed7915	-0.4638144
68	0x3e955e6d	0.29173604
69	0xbdbb5c3b	-0.09148451
70	0x3e182ec3	0.14861588
71	0xbe9246aa	-0.28569537
72	0x3e934e44	0.2877065
73	0xbe14b53b	-0.14522259
74	0xbcfd4229	-0.030915337
75	0xbe67d0af	-0.226382
76	0x3e39e20e	0.1815264
77	0xbf466b89	-0.77507836
78	0x3ccd519f	0.025063334
79	0x3edc6901	0.43048862
80	0xbf14c702	-0.5811616
81	0xbdc83ce7	-0.09777241
82	0x3e22db13	0.15903883
83	0x3d800002	0.062500015
84	0xbf127110	-0.5720377
85	0xbf134f43	-0.5754282
86	0x3e128d49	0.14311709
87	0xbce4de1b	-0.02793794
88	0x3e961414	0.29312193
89	0x3edcaec2	0.4310208
90	0x3d47065e	0.048590057
91	0xbe7ef12f	-0.24896692
92	0xbd1c28b2	-0.038124748
93	0xbdd95579	-0.10612006
94	0xbf5c7d2b	-0.8612849
95	0xbe97f8b0	-0.2968192
96	0xbe701537	-0.23445593
97	0xbf52366b	-0.82114285
98	0xbd4fc9cc	-0.050729558
99	0x3dbf52df	0.09341978
100	0x3e947adf	0.28999993
101	0x3ea172e0	0.31532955
102	0xbd7a8b22	-0.061167844
103	0x3e91098f	0.28327605
104	0xbf08f499	-0.53498226
105	0xbd8cbd86	-0.06872086
106	0x3f004890	0.5011072
107	0xbed2bdfc	-0.41160572
108	0x3ea23aa6	0.3168537
109	0xbe94c13d	-0.2905368
110	0x3d37ebb0	0.044902503
111	0x3cbf06ef	0.023318736
112	0xbeb1219f	-0.34595963
113	0x3e94f68b	0.29094347
114	0x3ef39f2c	0.47582376
115	0xbec5e5d7	-0.38651916
116	0x3e136f64	0.14397961
117	0xbba1029f	-0.0049136425
118	0xbdeb3288	-0.114842474
119	0xbb145be0	-0.002263777
120	0xbeb15ac1	-0.34639552
121	0xbe8462e7	-0.25856707
122	0x3e95d99b	0.29267582
123	0xbb9f834b	-0.0048679463
124	0xbe362f5f	-0.17791508
125	0xbe28f495	-0.1649955
126	0xbf3be55c	-0.7339685
127	0xbe80a12e	-0.2512297
128	0xbdfc4e71	-0.12319649
129	0x3ca88569	0.020571427
130	0xbe380e9e	-0.17974326
131	0xbe190378	-0.1494273
132	0xbe1055ca	-0.14095226
133	0xbdd2e4d0	-0.10297549
134	0xbe87da7c	-0.26533878
135	0x3e880744	0.26568043
136	0x3e46c2e7	0.19410287
137	0xbda526bc	-0.080640286
138	0x3dc9a06d	0.09845052
139	0x3e67edd5	0.2264932
140	0xbd5f524a	-0.054521836
141	0x3e8a60a8	0.27026868
142	0xbf1dad69	-0.6159273
143	0x3e4f356e	0.20235226
144	0x3c94723c	0.018120877
145	0xbe78f4cb	-0.24312131
146	0xbe83c75f	-0.25738046
147	0xbc509a55	-0.012732108
148	0xbceb559d	-0.028727347
149	0x3e057da6	0.13036212
150	0xbeaf4879	-0.3423498
151	0xbdc01487	-0.09378915
152	0x3ead5c1f	0.33859345
153	0x3e03393e	0.12814805
154	0xbe48e23b	-0.1961755
155	0xbdbcce2d	-0.092190124
156	0xbe0ce744	-0.13760096
157	0x3cdb68f3	0.026783442
158	0x3de0bac3	0.10973122
159	0xbe595bca	-0.21226421
160	0x3e8400dc	0.25781906
161	0x3e5b2ae3	0.21403079
162	0x3d0ae45d	0.03390919
163	0xbdaea3c5	-0.0852733
164	0x3ccc1440	0.024912
165	0x3e19efb9	0.15032853
166	0xbe13473f	-0.14382647
167	0x3e40d098	0.18829572
168	0x3bedabc7	0.0072531435
169	0xbd45d9af	-0.048303302
170	0x3ec39c99	0.38205412
171	0xbda01f24	-0.078184396
172	0xbcbd5e1c	-0.023116164
173	0x3de3ab9d	0.11116717
174	0x3cc9f6cd	0.024653817
175	0xbe4466d6	-0.19179854
176	0xbed6955a	-0.4191082
177	0x3e8e233c	0.27761257
178	0xbde74200	-0.112918854
179	0x3dbb4645	0.09144262
180	0xbddb1a3e	-0.10698365
181	0xbdc4c716	-0.09608285
182	0xbe29f4c7	-0.16597281
183	0xbcd5fbf4	-0.026121117
184	0xbe85cabc	-0.26131237
185	0xbd2c7ea0	-0.042112947
186	0xbe9153e2	-0.2838431
187	0xbecc2fbf	-0.39880177
188	0xbe5b5418	-0.21418798
189	0xbe9d75eb	-0.30754027
190	0x3b4495f8	0.0029996615
191	0x3e2ef6ff	0.17086409
192	0x3da64de4	0.08120325
193	0xbda7f5b3	-0.0820116
194	0xbe01c33d	-0.12672134
195	0x3ca3dddd	0.020003254
196	0xbd282d9f	-0.041059133
197	0x3cc1c3a6	0.023652863
198	0xbe043e92	-0.12914494
199	0x3e022f82	0.12713435
200	0x3cb29b5c	0.021802597
201	0x3e5fbcdc	0.21849388
202	0x3c90962e	0.017649736
203	0xbd985468	-0.07437974
204	0xbdd078c7	-0.101792865
205	0x3ca363bf	0.019945024
206	0xbf035b01	-0.51310736
207	0x3e066ae1	0.13126709
208	0xbe0579d6	-0.13034758
209	0xbe23c6fc	-0.15993875
210	0xbd85f789	-0.06541354
211	0xbe4f729a	-0.20258561
212	0x3d006f20	0.031355977
213	0x3cb3b9f3	0.021939253
214	0x3d15f968	0.036614805
215	0x3d349ae2	0.04409302
216	0x3e07f7bf	0.13278101
217	0x3c7d9c40	0.015479147
218	0xbc99e042	-0.018783692
219	0x3d6683e8	0.05627814
220	0xbdaace4a	-0.08340128
221	0xbe027223	-0.12738852
222	0x3c37ff68	0.011230327
223	0xbe549223	-0.20758872
224	0xbddc29da	-0.1075017
225	0xbc03bc87	-0.008040554
226	0x3ddad6ee	0.10685526
227	0xbd390a14	-0.045175627
228	0x3d882150	0.06646979
229	0x3c28a6a4	0.0102936365
230	0xbb8f76cf	-0.0043781768
231	0x3da6af3b	0.08138891
232	0x3d8899f2	0.06669988
233	0xbe46ba47	-0.19406997
234	0xbd433106	-0.047654174
235	0xbcbf37c5	-0.023342023
236	0x3ded8f3c	0.115995854
237	0x3d2fb9d9	0.042901848
238	0x3d9b1b89	0.07573611
239	0xbdcd0417	-0.10010546
240	0x3ddb5f7b	0.10711571
241	0x3d725592	0.059163637
242	0x3d84ccc0	0.064843655
243	0x3d068b86	0.032847904
244	0x3daaa191	0.083315976
245	0x3d9a12e2	0.07523133
246	0xbcc43e91	-0.023955615
247	0x3d7f9046	0.06239345
248	0x3c592fa1	0.0132559845
249	0xbcc647ad	-0.0242041
250	0xbcbfb286	-0.023400556
251	0xbd4bd45b	-0.049763065
252	0xbd183462	-0.03715933
253	0xbe85cd28	-0.26133084
254	0xbd355473	-0.04426999
255	0x3dc04a2d	0.09389148

mlp.4.bias f4 [32]
0	0x3c83dc74	0.016096331
1	0xbe74acbd	-0.2389402
2	0xbdbd3caf	-0.0924009
3	0xbcaa41f1	-0.020783396
4	0xbb4f5a58	-0.0031639542
5	0xbbdfdeaa	-0.0068319635
6	0xbc332d60	-0.010936111
7	0xbc02bf48	-0.007980175
8	0x3bf9ab0b	0.007619267
9	0xbc32366f	-0.010877236
10	0x3cc51a94	0.024060525
11	0xbd84eacc	-0.064900964
12	0x3b58218f	0.0032978987
13	0xbd58c599	-0.05292282
14	0xb9d92c72	-0.0004142258
15	0x3d4250ec	0.047440454
16	0xbdaac2f7	-0.08337968
17	0x3c96e7be	0.01842105
18	0xbb9a94de	-0.0047174534
19	0xbe4cd1e4	-0.20001942
20	0xbe308e2c	-0.17241734
21	0xbe0b4356	-0.13599905
22	0x3d4f8c18	0.050670713
23	0x3cd30f23	0.025764054
24	0x3cc8342d	0.024438942
25	0x3c4bdcad	0.01244275
26	0xbc54f31d	-0.012997416
27	0xbe079f11	-0.13244273
28	0x3ca8e332	0.020616148
29	0x3c810ea3	0.01575405
30	0x3cfa001c	0.03051763
31	0x3d0abbd8	0.033870548

mlp.6.weight f4 [1, 32]
0	0xbaf1227a	-0.0018397116
1	0x3d8e136c	0.06937298
2	0xbcb574fd	-0.02215051
3	0xbb90d551	-0.0044199605
4	0xbae24f0e	-0.0017265992
5	0xbb52d594	-0.003217076
6	0xbafbe727	-0.0019218669
7	0xba261cbb	-0.00063366786
8	0x3b3fc63b	0.0029262442
9	0x3b1e03f9	0.0024111255
10	0x3c180793	0.00927915
11	0xbd841a18	-0.064502895
12	0xbac1b9a0	-0.0014780052
13	0xbda54bbb	-0.08071085
14	0x3b2c549b	0.0026295546
15	0xbaa6f8c6	-0.0012738935
16	0x3cdd8329	0.027040081
17	0x3b400056	0.0029297075
18	0xbae51665	-0.0017477988
19	0xbdd30440	-0.10303545
20	0x3d8baa46	0.068195865
21	0x3c9a5dee	0.018843617
22	0x383c1eed	4.4851495e-05
23	0xb9153087	-0.00014227825
24	0xbb21fc99	-0.002471721
25	0xba3ab325	-0.00071220315
26	0xbb293e98	-0.0025824662
27	0xbd8958e8	-0.06706411
28	0x3ba4e9d2	0.0050327564
29	0xbbb8f124	-0.0056439806
30	0x37fa08c8	2.9806411e-05
31	0x3bc14058	0.005897563
