checkpoints/f_local.pth (torch, 153722 bytes, 20 tensors)

mlp.weight f4 [32, 992]
000000 61 46 f8 3d 3f e5 b4 bd 96 b1 5f bc 6c aa 66 3d
       0.12122799 -0.08832788 -0.01365318 0.05631487
000010 48 47 67 3e 1c 20 02 bd b3 e7 66 be e8 43 a1 3d
       0.22585785 -0.031768903 -0.22549324 0.0787428
000020 f3 c5 39 bc 29 fc 47 3e 62 c2 82 3e 99 98 36 3d
       -0.011338699 0.19529785 0.25538927 0.044579122
000030 ff 34 43 3c ef d1 72 3d a3 76 4f 3d 6a 61 5b 3e
       0.011914491 0.05928224 0.05065025 0.2142388
000040 c7 11 3e bd ff 06 85 3e c1 9f 8a 3e 62 01 6d 3d
       -0.046403673 0.259819 0.27075008 0.057862647
000050 aa 66 a9 3d de be 6a bd 27 7f 45 be 8b be 3b be
       0.08271535 -0.05731093 -0.19286786 -0.18334405
000060 6d ad 93 3d f9 76 0d be 18 90 82 be e4 c8 5e bd
       0.07210813 -0.13814916 -0.2550056 -0.054390803
000070 f9 d8 21 be c2 da 01 be e1 ac 8e 3d 74 db 3d be
       -0.15805425 -0.12681106 0.06966568 -0.18540746
000080 62 15 e1 3d af 4c 77 bd 3f 23 74 3b 86 55 24 be
       0.109904066 -0.060375866 0.0037252454 -0.1604825
000090 be 6b d7 bd 6f 91 fd bd ef 3c 23 be 83 88 e3 bb
       -0.10518597 -0.12381255 -0.15941213 -0.0069437637
0000a0 38 66 34 be 80 e2 bf 3c 85 23 1b be b0 26 52 be
       -0.17617118 0.023423433 -0.15150268 -0.2052257
0000b0 36 a9 eb 3c 2f f6 fc bd dd 79 05 be dd 1b 38 bd
       0.02876721 -0.12351643 -0.13034768 -0.044948447
0000c0 50 1c 7a 3d 0e 7e 1e 3e dd 61 43 3e 9e ae c1 ba
       0.061062157 0.15477774 0.190803 -0.0014776771
0000d0 06 b9 4e 3d f1 06 1e 3e bc db 6e 3c 18 09 49 3d
       0.05046942 0.15432335 0.014578756 0.049080938
0000e0 51 c3 b0 3d 50 e7 24 be 05 9b b5 3c 19 68 45 3e
       0.08631004 -0.16103864 0.022168646 0.19277991
0000f0 7b ca 86 3e 9d 40 ee bd 40 8e b5 be 53 ca 30 be
       0.26326355 -0.11633418 -0.3546009 -0.1726468
000100 71 95 17 3f d3 78 ce bd 6e 53 99 bc 10 d0 73 be
       0.59212404 -0.10081639 -0.01871654 -0.23809838
000110 46 39 b6 3d 34 f8 d2 be cc bb 8d 3e a6 fa 51 3d
       0.08897643 -0.4120499 0.2768234 0.051264428
000120 80 a8 28 be 3d 9e 57 bd bf d8 eb 3e 2b 51 a9 be
       -0.16470528 -0.052641142 0.46063802 -0.3306974
000130 43 ef 80 be e4 22 32 be 31 2c 3f 3e f0 d1 8e 3e
       -0.25182542 -0.17396122 0.18669201 0.27894545
000140 c9 71 d1 3d 1a 81 16 be 47 33 33 3d 93 68 fb bd
       0.10226781 -0.14697686 0.043750074 -0.12275805
000150 7a f8 07 3e a6 58 a1 3d ac cc cb bd a3 1d 79 3d
       0.1327838 0.078782365 -0.099511474 0.06081928
000160 2f 6f 41 be fe b2 14 3e 08 63 98 be 7e b1 3d bd
       -0.1889007 0.14521405 -0.29763055 -0.046311848
000170 06 fa a4 be 55 78 a3 3c d1 02 39 bd 23 a1 6e 3e
       -0.32222003 0.01995484 -0.0451687 0.23303656
000180 8f 1f 89 be 3e 2d 9f be 09 28 bf 3d f1 bd 5f 3b
       -0.2678189 -0.31089205 0.09333808 0.0034140314
000190 50 53 96 3f 4c e0 79 3e dc 08 b9 3e 1e 45 63 3f
       1.1744175 0.24401969 0.36139572 0.8877734
0001a0 8f f8 0f 3e 61 3e f8 3d 28 6a a2 3d 4f 64 e5 3e
       0.14059661 0.12121273 0.07930404 0.44803092
0001b0 ba 22 48 3e 7f 3d b3 3f 37 99 00 3e 7f b2 06 be
       0.19544497 1.4003142 0.12558447 -0.13154028
0001c0 c9 ec 46 3e c9 95 0a 3e 9a c5 11 3e ac c1 08 bd
       0.19426264 0.13533701 0.14235535 -0.033387825
0001d0 d3 0e 32 3e 94 78 04 be 92 3b 4a 3f 28 63 00 3d
       0.17388467 -0.12936622 0.7899715 0.031344563
0001e0 34 48 b4 3f 53 ad 07 3e 81 cd d5 3d 74 98 92 3f
       1.4084535 0.13249712 0.104395874 1.1452775
0001f0 7c 72 57 3f d0 dd f7 be f4 85 65 3c 51 2d 78 3d
       0.84159064 -0.48411417 0.014008988 0.060590092
000200 38 b1 3f 3f 61 26 96 3f 2e 0f 14 3e 3e f7 ee 3d
       0.7487979 1.1730462 0.14458916 0.116682515
000210 24 ce 8d 3f 6d de 97 3f 56 a8 9b be 59 b7 d6 bb
       1.1078534 1.1864754 -0.30401868 -0.0065526185
000220 34 d4 a4 be ca bf 18 3f 04 c0 42 bf 3e 85 31 3e
       -0.32193148 0.59667647 -0.7607424 0.17335984
000230 0d dc 81 bd 2b d9 89 be b4 21 ba bd cf 46 ab 3e
       -0.063407995 -0.269235 -0.090884596 0.3345246
000240 fc 4e 57 be 44 ed 0b bf 3d 08 cb 3f 4f a3 c1 3e
       -0.21026224 -0.54658914 1.5861889 0.37819907
000250 ff 95 0b 3e 4c 26 ef 3e 8b 47 69 3f 5b 96 75 bd
       0.13631438 0.46708906 0.9112479 -0.059957843
000260 5c 46 44 3f d4 8e 17 bf 65 c8 7a be dd c6 1d bd
       0.7666986 -0.59202313 -0.24490507 -0.03851973
000270 00 83 42 3d 8c 4d 46 3e 9f ad ac 3d c1 6b 55 bd
       0.047488213 0.1936552 0.08431553 -0.052104715
000280 29 72 8f be 57 47 2d be 87 94 1f 3d 4f ef bc 3c
       -0.28016785 -0.16921745 0.038960006 0.02306333
000290 72 e4 a3 3e 3a a3 53 bf 63 c2 97 bf 3c 68 84 bf
       0.32010227 -0.8267094 -1.1856197 -1.034431
0002a0 42 c2 18 3e 91 f0 4c bf 0d 2d be bc 1a 85 b2 bd
       0.14917853 -0.80054575 -0.023214841 -0.08716793
0002b0 ca 43 54 bc 6a b5 eb 3c ce 1b e8 bc 2e 0a 92 3f
       -0.012955615 0.028773028 -0.02833357 1.1409357
0002c0 6d 0e 01 3f 53 fe 86 bf f9 87 d0 bd 3e 4e 88 bc
       0.50412637 -1.0546364 -0.10182185 -0.016638871
0002d0 0b 86 1b bf d7 92 ac 3e 5a 8a c1 be 52 36 f3 be
       -0.6075141 0.3370578 -0.37800866 -0.4750238
0002e0 47 c3 7c bf c9 55 8b bf 47 db 94 3e df 6d 40 bc
       -0.9873547 -1.0885555 0.29073545 -0.011744945
0002f0 e2 0a 1a be 5e 58 8a be 92 fc 2d bf e0 70 a5 bc
       -0.15043214 -0.27020544 -0.67963517 -0.020195425
000300 1f 78 d3 bb 7f d3 b9 bf 43 95 30 3f d7 7f 11 3d
       -0.0064535285 -1.4517668 0.68977755 0.03552231
000310 89 e5 9c 3b 4e 90 e6 3d d3 e2 08 bc ef 0e 2f bd
       0.004788105 0.11257993 -0.00835486 -0.04273885
000320 99 c4 0e bc b7 f8 8c 3d e9 20 12 3f 6c a9 cd be
       -0.008713865 0.06883376 0.57081467 -0.4016832
000330 32 9a 00 3e 2a cb 86 3d a7 97 96 3d 32 9c a5 3e
       0.12558821 0.06581719 0.07353144 0.3234573
000340 58 5b 75 bc b2 a5 87 be 42 92 e8 3e 94 4a 00 3f
       -0.014975391 -0.26493603 0.45424086 0.501138
000350 eb 3e 10 bf fb a1 97 3e 56 e0 a6 3f 02 7b cc 3e
       -0.56346005 0.2961577 1.3037212 0.39937598
000360 7d d5 80 bc 38 8b 60 bf ac c7 30 be 8e 6e e2 be
       -0.0157268 -0.8771243 -0.17263669 -0.44224972
000370 41 f7 28 3f b0 d3 88 3b 3a 4c 86 be 10 8d 31 3e
       0.6600228 0.0041756257 -0.2623003 0.17338967
000380 97 d7 b0 bb 0b 23 d5 be 12 53 1f 3f 17 d3 a3 be
       -0.005396794 -0.41628298 0.6223613 -0.31996986
000390 ec c9 19 3e f4 75 7c 3f 37 fa cc bd 08 1b b3 be
       0.15018433 0.9861748 -0.10008662 -0.3498156
0003a0 74 dc ff 3e 4a 79 96 3c bf bc 97 3e be 30 33 be
       0.4997288 0.018368382 0.2963619 -0.17499062
0003b0 fc f5 d5 be a7 36 ea 3e a6 06 48 3f c4 38 9c be
       -0.41789234 0.4574482 0.78135145 -0.3051206
0003c0 41 d8 ba 3e 87 f6 63 3f da 2a e4 3d c8 2f 72 bd
       0.36493114 0.89048046 0.11140986 -0.0591276
0003d0 5a d9 32 bf 34 b8 f6 3c 05 d9 a9 3d 3b ef 58 bf
       -0.698629 0.030117132 0.08293346 -0.84740037
0003e0 c5 3c 82 3e 1e 87 b2 be 63 1b 4e bf 47 93 02 be
       0.25436988 -0.3486871 -0.8051054 -0.12751494
0003f0 ef 97 21 3e 0e b3 03 3f 09 18 dc 3e 18 13 41 bc
       0.15780614 0.5144509 0.42987087 -0.011784337

mlp.bias f4 [32]
000000 07 95 92 be b3 f0 68 be 4c f6 4e bf 9f f2 b3 be
       -0.28629324 -0.2274807 -0.8084457 -0.35146043
000010 b6 1b d0 bb 6a 76 14 bc 2e fb a4 be d0 98 e5 be
       -0.0063509597 -0.009061435 -0.32222885 -0.4484315
000020 86 c0 c0 bb 0e fd 0d bf 64 47 83 bf 66 ce 3c be
       -0.0058823256 -0.55464256 -1.0256162 -0.1843811
000030 fc e6 b1 3e 85 8d 83 3b 71 09 ba 3b b7 b8 55 bf
       0.3474654 0.004014673 0.005677395 -0.8348498
000040 01 aa cc be 88 09 27 bc e1 a6 d2 be 4d ab fe be
       -0.39973453 -0.0101951435 -0.41142944 -0.49740067
000050 72 45 24 bc 5e 35 6f 3b e3 29 8b bf 9c d6 58 3e
       -0.010026323 0.0036500315 -1.0872158 0.21175617
000060 f4 a0 53 be 03 88 bd be 7c eb 18 bf a3 c5 04 bf
       -0.20666867 -0.3701783 -0.5973432 -0.5186407
000070 e1 98 9d be 7b 06 f5 bd 4f bb 31 be 77 fb b6 bd
       -0.307807 -0.11964127 -0.17356609 -0.08934682

kan.node_bias_0 f4 [6]
000000 00 00 00 00 00 00 00 00 00 00 00 00 00 00 00 00
       0.0 0.0 0.0 0.0
000010 00 00 00 00 00 00 00 00
       0.0 0.0

kan.node_scale_0 f4 [6]
000000 00 00 80 3f 00 00 80 3f 00 00 80 3f 00 00 80 3f
       1.0 1.0 1.0 1.0
000010 00 00 80 3f 00 00 80 3f
       1.0 1.0

kan.subnode_bias_0 f4 [6]
000000 00 00 00 00 00 00 00 00 00 00 00 00 00 00 00 00
       0.0 0.0 0.0 0.0
000010 00 00 00 00 00 00 00 00
       0.0 0.0

kan.subnode_scale_0 f4 [6]
000000 00 00 80 3f 00 00 80 3f 00 00 80 3f 00 00 80 3f
       1.0 1.0 1.0 1.0
000010 00 00 80 3f 00 00 80 3f
       1.0 1.0

kan.act_fun.0.grid f4 [32, 17]
000000 00 00 00 c0 00 00 e0 bf 00 00 c0 bf 00 00 a0 bf
       -2.0 -1.75 -1.5 -1.25
000010 00 00 80 bf 00 00 40 bf 00 00 00 bf 00 00 80 be
       -1.0 -0.75 -0.5 -0.25
000020 00 00 00 00 00 00 80 3e 00 00 00 3f 00 00 40 3f
       0.0 0.25 0.5 0.75
000030 00 00 80 3f 00 00 a0 3f 00 00 c0 3f 00 00 e0 3f
       1.0 1.25 1.5 1.75
000040 00 00 00 40 00 00 00 c0 00 00 e0 bf 00 00 c0 bf
       2.0 -2.0 -1.75 -1.5
000050 00 00 a0 bf 00 00 80 bf 00 00 40 bf 00 00 00 bf
       -1.25 -1.0 -0.75 -0.5
000060 00 00 80 be 00 00 00 00 00 00 80 3e 00 00 00 3f
       -0.25 0.0 0.25 0.5
000070 00 00 40 3f 00 00 80 3f 00 00 a0 3f 00 00 c0 3f
       0.75 1.0 1.25 1.5
000080 00 00 e0 3f 00 00 00 40 00 00 00 c0 00 00 e0 bf
       1.75 2.0 -2.0 -1.75
000090 00 00 c0 bf 00 00 a0 bf 00 00 80 bf 00 00 40 bf
       -1.5 -1.25 -1.0 -0.75
0000a0 00 00 00 bf 00 00 80 be 00 00 00 00 00 00 80 3e
       -0.5 -0.25 0.0 0.25
0000b0 00 00 00 3f 00 00 40 3f 00 00 80 3f 00 00 a0 3f
       0.5 0.75 1.0 1.25
0000c0 00 00 c0 3f 00 00 e0 3f 00 00 00 40 00 00 00 c0
       1.5 1.75 2.0 -2.0
0000d0 00 00 e0 bf 00 00 c0 bf 00 00 a0 bf 00 00 80 bf
       -1.75 -1.5 -1.25 -1.0
0000e0 00 00 40 bf 00 00 00 bf 00 00 80 be 00 00 00 00
       -0.75 -0.5 -0.25 0.0
0000f0 00 00 80 3e 00 00 00 3f 00 00 40 3f 00 00 80 3f
       0.25 0.5 0.75 1.0
000100 00 00 a0 3f 00 00 c0 3f 00 00 e0 3f 00 00 00 40
       1.25 1.5 1.75 2.0
000110 00 00 00 c0 00 00 e0 bf 00 00 c0 bf 00 00 a0 bf
       -2.0 -1.75 -1.5 -1.25
000120 00 00 80 bf 00 00 40 bf 00 00 00 bf 00 00 80 be
       -1.0 -0.75 -0.5 -0.25
000130 00 00 00 00 00 00 80 3e 00 00 00 3f 00 00 40 3f
       0.0 0.25 0.5 0.75
000140 00 00 80 3f 00 00 a0 3f 00 00 c0 3f 00 00 e0 3f
       1.0 1.25 1.5 1.75
000150 00 00 00 40 00 00 00 c0 00 00 e0 bf 00 00 c0 bf
       2.0 -2.0 -1.75 -1.5
000160 00 00 a0 bf 00 00 80 bf 00 00 40 bf 00 00 00 bf
       -1.25 -1.0 -0.75 -0.5
000170 00 00 80 be 00 00 00 00 00 00 80 3e 00 00 00 3f
       -0.25 0.0 0.25 0.5
000180 00 00 40 3f 00 00 80 3f 00 00 a0 3f 00 00 c0 3f
       0.75 1.0 1.25 1.5
000190 00 00 e0 3f 00 00 00 40 00 00 00 c0 00 00 e0 bf
       1.75 2.0 -2.0 -1.75
0001a0 00 00 c0 bf 00 00 a0 bf 00 00 80 bf 00 00 40 bf
       -1.5 -1.25 -1.0 -0.75
0001b0 00 00 00 bf 00 00 80 be 00 00 00 00 00 00 80 3e
       -0.5 -0.25 0.0 0.25
0001c0 00 00 00 3f 00 00 40 3f 00 00 80 3f 00 00 a0 3f
       0.5 0.75 1.0 1.25
0001d0 00 00 c0 3f 00 00 e0 3f 00 00 00 40 00 00 00 c0
       1.5 1.75 2.0 -2.0
0001e0 00 00 e0 bf 00 00 c0 bf 00 00 a0 bf 00 00 80 bf
       -1.75 -1.5 -1.25 -1.0
0001f0 00 00 40 bf 00 00 00 bf 00 00 80 be 00 00 00 00
       -0.75 -0.5 -0.25 0.0
000200 00 00 80 3e 00 00 00 3f 00 00 40 3f 00 00 80 3f
       0.25 0.5 0.75 1.0
000210 00 00 a0 3f 00 00 c0 3f 00 00 e0 3f 00 00 00 40
       1.25 1.5 1.75 2.0
000220 00 00 00 c0 00 00 e0 bf 00 00 c0 bf 00 00 a0 bf
       -2.0 -1.75 -1.5 -1.25
000230 00 00 80 bf 00 00 40 bf 00 00 00 bf 00 00 80 be
       -1.0 -0.75 -0.5 -0.25
000240 00 00 00 00 00 00 80 3e 00 00 00 3f 00 00 40 3f
       0.0 0.25 0.5 0.75
000250 00 00 80 3f 00 00 a0 3f 00 00 c0 3f 00 00 e0 3f
       1.0 1.25 1.5 1.75
000260 00 00 00 40 00 00 00 c0 00 00 e0 bf 00 00 c0 bf
       2.0 -2.0 -1.75 -1.5
000270 00 00 a0 bf 00 00 80 bf 00 00 40 bf 00 00 00 bf
       -1.25 -1.0 -0.75 -0.5
000280 00 00 80 be 00 00 00 00 00 00 80 3e 00 00 00 3f
       -0.25 0.0 0.25 0.5
000290 00 00 40 3f 00 00 80 3f 00 00 a0 3f 00 00 c0 3f
       0.75 1.0 1.25 1.5
0002a0 00 00 e0 3f 00 00 00 40 00 00 00 c0 00 00 e0 bf
       1.75 2.0 -2.0 -1.75
0002b0 00 00 c0 bf 00 00 a0 bf 00 00 80 bf 00 00 40 bf
       -1.5 -1.25 -1.0 -0.75
0002c0 00 00 00 bf 00 00 80 be 00 00 00 00 00 00 80 3e
       -0.5 -0.25 0.0 0.25
0002d0 00 00 00 3f 00 00 40 3f 00 00 80 3f 00 00 a0 3f
       0.5 0.75 1.0 1.25
0002e0 00 00 c0 3f 00 00 e0 3f 00 00 00 40 00 00 00 c0
       1.5 1.75 2.0 -2.0
0002f0 00 00 e0 bf 00 00 c0 bf 00 00 a0 bf 00 00 80 bf
       -1.75 -1.5 -1.25 -1.0
000300 00 00 40 bf 00 00 00 bf 00 00 80 be 00 00 00 00
       -0.75 -0.5 -0.25 0.0
000310 00 00 80 3e 00 00 00 3f 00 00 40 3f 00 00 80 3f
       0.25 0.5 0.75 1.0
000320 00 00 a0 3f 00 00 c0 3f 00 00 e0 3f 00 00 00 40
       1.25 1.5 1.75 2.0
000330 00 00 00 c0 00 00 e0 bf 00 00 c0 bf 00 00 a0 bf
       -2.0 -1.75 -1.5 -1.25
000340 00 00 80 bf 00 00 40 bf 00 00 00 bf 00 00 80 be
       -1.0 -0.75 -0.5 -0.25
000350 00 00 00 00 00 00 80 3e 00 00 00 3f 00 00 40 3f
       0.0 0.25 0.5 0.75
000360 00 00 80 3f 00 00 a0 3f 00 00 c0 3f 00 00 e0 3f
       1.0 1.25 1.5 1.75
000370 00 00 00 40 00 00 00 c0 00 00 e0 bf 00 00 c0 bf
       2.0 -2.0 -1.75 -1.5
000380 00 00 a0 bf 00 00 80 bf 00 00 40 bf 00 00 00 bf
       -1.25 -1.0 -0.75 -0.5
000390 00 00 80 be 00 00 00 00 00 00 80 3e 00 00 00 3f
       -0.25 0.0 0.25 0.5
0003a0 00 00 40 3f 00 00 80 3f 00 00 a0 3f 00 00 c0 3f
       0.75 1.0 1.25 1.5
0003b0 00 00 e0 3f 00 00 00 40 00 00 00 c0 00 00 e0 bf
       1.75 2.0 -2.0 -1.75
0003c0 00 00 c0 bf 00 00 a0 bf 00 00 80 bf 00 00 40 bf
       -1.5 -1.25 -1.0 -0.75
0003d0 00 00 00 bf 00 00 80 be 00 00 00 00 00 00 80 3e
       -0.5 -0.25 0.0 0.25
0003e0 00 00 00 3f 00 00 40 3f 00 00 80 3f 00 00 a0 3f
       0.5 0.75 1.0 1.25
0003f0 00 00 c0 3f 00 00 e0 3f 00 00 00 40 00 00 00 c0
       1.5 1.75 2.0 -2.0

kan.act_fun.0.coef f4 [32, 6, 12]
000000 f6 42 17 bc 33 1f cf 3c b3 80 a3 bd c8 ea 46 3d
       -0.009232273 0.025283432 -0.07983532 0.04856375
000010 8c 8f 5f bc d6 02 a3 ba ef 4a cd 3c 0d b7 6c 3d
       -0.013645064 -0.0012436758 0.025060145 0.05779176
000020 8b 27 5a bd bc 7f 2b be 2e eb ba bc 22 f1 eb 3b
       -0.053260367 -0.16747946 -0.02281722 0.007200376
000030 03 e5 59 3d d4 92 9c 3c c0 8b 6c 3b 42 8c fc bb
       0.05319692 0.019112982 0.003609404 -0.0077071497
000040 8d 43 9b bc df 7a 4a 3c 3b f3 02 3d 4f 87 1a 3d
       -0.01895311 0.012358396 0.031970244 0.037726697
000050 5d 74 05 3d 1d 2c bb 3c b7 ec 17 be 62 fb ee bd
       0.032581676 0.022848183 -0.14836393 -0.11669041
000060 9d 0d e8 bd a8 c6 1c bd 7e ac ba bc d2 22 59 bc
       -0.113307215 -0.03827539 -0.022787329 -0.013252931
000070 a4 e9 95 3c 65 e9 c5 3c f8 e5 da 3b 29 37 99 3c
       0.018299885 0.024159143 0.0066802464 0.01870306
000080 0b fa d2 bc af 67 ce bd 86 3c a0 bd 13 12 9d be
       -0.025753995 -0.1007837 -0.07824044 -0.30677852
000090 a8 c5 78 bd 55 d7 9c 3c e6 ae 9d bd b5 77 df 3b
       -0.060735375 0.019145647 -0.07699375 0.00681969
0000a0 ed 1c 83 3c 96 dc 0b 3c 63 3c 4b 3b 98 75 ac 3c
       0.016005004 0.0085364785 0.0031011335 0.021052167
0000b0 20 78 52 3b 23 6f 35 3c 05 b1 5e 3d 18 0d c0 bd
       0.0032115057 0.01107386 0.054368038 -0.093774974
0000c0 d1 cc 06 3e 82 9f 9e bc 47 0f bf bc 52 f6 e8 bc
       0.13164069 -0.019363169 -0.023322714 -0.028437767
0000d0 1c 26 3b 3c c2 aa a2 bb 4a 1a e2 bb cd 49 e7 3c
       0.01142266 -0.0049642036 -0.0069001066 0.028233433
0000e0 f2 70 78 bd 9a b6 a5 ba 7b 6d e9 3c 84 a5 b6 3d
       -0.060654588 -0.001264292 0.028494587 0.08918288
0000f0 de ef 26 3d d9 f3 b8 39 84 12 4b bc f5 f2 8e 3c
       0.0407561 0.00035276896 -0.012394551 0.017449835
000100 f3 41 08 3c 35 56 86 bc 81 f8 ff bc b8 c2 a6 3d
       0.008316505 -0.016398529 -0.031246426 0.081426084
000110 95 c7 53 bd 81 c6 90 3b 8b 1e 61 3d 62 dd ca bc
       -0.051704008 0.0044181948 0.05496077 -0.024763767
000120 52 6c 93 bc 25 9c 1c 3d 89 b6 35 3c 8e 0a 81 3b
       -0.017995987 0.03823485 0.011090883 0.003938026
000130 b5 39 56 bd ff 5d 6c 3d 51 97 92 bb 65 78 e9 bd
       -0.052301127 0.05770683 -0.0044736047 -0.113999166
000140 48 4a bb 3c cc e0 ea bc 41 31 bb 3d ca 91 dc 3d
       0.022862568 -0.028671645 0.09140254 0.107699946
000150 71 c9 5f 3b 6b 41 85 3c 67 20 30 bd 73 72 92 3d
       0.0034147168 0.016266545 -0.04299965 0.07150736
000160 5a a1 d6 bc b9 7e 1f bd f0 27 06 be 5b a1 c8 3d
       -0.026199985 -0.03893921 -0.13101172 0.09796401
000170 8f ea 14 be c9 68 e9 bd 2f 18 23 bd 5d d5 bb 3b
       -0.14542602 -0.11396939 -0.039817985 0.005732222
000180 cb 1d 34 3d 69 dc a4 3c 56 3f ef 3c 65 da 55 bc
       0.043973725 0.020124631 0.029205006 -0.013052558
000190 cb cf 96 bd 23 ca fe bd 31 d1 6b be ad a2 52 be
       -0.07363852 -0.12440898 -0.23029019 -0.20569868
0001a0 13 8b 12 3e fa 30 6e 3f 8d 9f 04 bf 10 ca 83 bd
       0.14310865 0.9304348 -0.51805955 -0.06435025
0001b0 04 eb da 39 08 1a cf bc 12 8f 01 3d 8f ee 0a bd
       0.000417553 -0.025280967 0.031630583 -0.033918913
0001c0 29 4a 49 3d f2 f0 22 bd 42 bd 80 3d 63 70 08 3d
       0.04914299 -0.039780565 0.06286098 0.033310305
0001d0 26 99 f8 bd c3 26 98 bd 3a da c0 3d 57 cf 7d 3d
       -0.12138586 -0.07429268 0.094166234 0.061965313
0001e0 39 9f 8d 3c d9 17 2f bc 6d 4e c8 bc 7c 49 a9 3c
       0.017287837 -0.010686838 -0.024451459 0.020664923
0001f0 2a 7f 89 3c 10 e4 21 bd 7d 86 ec 3a d3 c7 92 3d
       0.01678427 -0.039524138 0.0018045452 0.0716702
000200 52 00 85 bd 54 1a 44 3e e2 e1 1e 3d 8a c3 e3 bd
       -0.06494202 0.19150668 0.038789637 -0.111212805
000210 ef 19 bc 3c 32 04 04 3d 22 55 24 bd b4 9e 52 bc
       0.022961585 0.032230563 -0.04012025 -0.012855221
000220 94 c0 38 ba c7 14 00 3d 46 f2 57 bb 57 56 e4 3d
       -0.00070477393 0.031269815 -0.0032950803 0.111492805
000230 23 50 ee bd 13 df b3 bd c4 08 c0 bd 7c 0a 94 bd
       -0.116363786 -0.087827824 -0.09376672 -0.07228562
000240 3b 6d 09 3d 1a 98 06 bd c8 c8 cd 3b 6d 6f 85 3c
       0.033551436 -0.0328599 0.0062800385 0.016288484
000250 3c 73 e3 bd 77 7f 19 3e a5 ac 65 3b c5 6a 10 be
       -0.111059636 0.1499003 0.003504553 -0.1410323
000260 64 9b ff bd 46 1b aa 3d ef 66 fd 3d a3 b3 1a be
       -0.1248081 0.08305983 0.12373149 -0.15107588
000270 99 41 d1 3c 29 62 25 bd 4c 2d 80 3c 61 ad 39 3d
       0.025543975 -0.040376816 0.0156466 0.045331363
000280 a8 37 3b bd cc d9 cb bd 24 47 72 3b 5d 02 08 3d
       -0.045707375 -0.09953651 0.0036968673 0.03320538
000290 e7 83 95 bd cb 2d 04 bd e6 53 b2 bd 31 e4 10 be
       -0.07300549 -0.032270234 -0.087074086 -0.14149548
0002a0 6d 0a 2d 3d fa c1 1e bb a5 a1 c2 bb 2b 79 51 bd
       0.04224627 -0.0024224506 -0.0059396797 -0.051140945
0002b0 b4 00 f5 3d 31 b7 ee 3d 35 82 30 bd 07 ff dd bd
       0.11963025 0.11656035 -0.043092925 -0.10839658
0002c0 1b d8 50 be 5d 5f 8b be d1 f1 81 be e3 92 37 bf
       -0.20394938 -0.27221194 -0.25379804 -0.71708506
0002d0 7c 61 ed bc 6b b8 16 3d 67 05 d5 bc 99 08 67 3b
       -0.028977148 0.03679697 -0.026003553 0.0035252927
0002e0 dc 0a 9d bd e1 23 9c bd a3 10 10 be 74 3d 85 be
       -0.07668087 -0.07624031 -0.14068846 -0.26023448
0002f0 02 48 4e bd 32 c5 9e bc 21 26 1b 3c 95 ae 50 3d
       -0.05036164 -0.01938114 0.00946954 0.050947744
000300 f7 0a f7 3b ac ca 02 bc 76 c1 28 3c a9 f7 37 bd
       0.007539149 -0.007982891 0.010300031 -0.04491392
000310 1c 5d cf bc a3 af 0e 3e ea 76 ea 3c 60 1f c8 3c
       -0.025312953 0.13934188 0.028621156 0.024429023
000320 11 10 a4 3d cf 99 54 3c b8 41 7e bc 61 5e 26 be
       0.08010877 0.012976124 -0.015518598 -0.1624694
000330 f0 82 d0 bc b5 c0 cd 3c ed b4 d3 bc d7 15 33 3d
       -0.02545306 0.025116304 -0.025843108 0.043722
000340 fd 69 91 bc 97 9b 29 bc 36 9d ba bd f7 b3 1e be
       -0.017750734 -0.010352037 -0.09112017 -0.15498339
000350 94 2c 10 bd e7 b6 ed 3d 43 28 bb 3b 94 62 81 3d
       -0.035198763 0.116071515 0.0057115867 0.063176304
000360 a0 6e 91 3d ac 2f cf bd 58 6f 70 3c 70 1a 8a bc
       0.07101178 -0.101165146 0.014674984 -0.01685831
000370 ff 8e 14 3d f0 eb fb bb f0 64 c2 3b ce ea 05 3d
       0.036269184 -0.007688038 0.005932443 0.03269463
000380 15 35 f6 3b 3c b8 93 bd 6a c9 57 bd 11 19 a4 3d
       0.007513652 -0.07212874 -0.052682318 0.080125935
000390 27 73 1d bd 5e c7 85 3d c5 d6 c3 bd 21 2b dc bb
       -0.038439896 0.06532167 -0.095624484 -0.0067190086
0003a0 18 23 a8 bb e6 e2 7a 3c d8 98 de 3d 89 68 11 bc
       -0.0051311366 0.015312886 0.108689964 -0.008875021
0003b0 51 44 93 3d 2d 3d 1b bd 9a c1 61 bb 57 eb ca bc
       0.07190765 -0.03790014 -0.003444767 -0.024770422
0003c0 f4 93 0b be 8b 80 5d bd 87 1f 29 bd 89 8b 57 3b
       -0.13630658 -0.054077666 -0.041289832 0.0032889566
0003d0 2e 83 30 3d 9e 28 00 3d ba b3 54 3d 7f 6c 84 3c
       0.043093853 0.031288736 0.051929213 0.016165016
0003e0 7c b4 1f bd a7 9a 9e bd 66 fc 6b bd 1d d5 93 be
       -0.038990483 -0.07744341 -0.057613753 -0.2887353
0003f0 1c 18 0e bd 3c f9 8c 3d 3d 00 a6 3b be 34 71 bc
       -0.03469096 0.06883475 0.0050659464 -0.014722047

kan.act_fun.0.mask f4 [32, 6]
000000 00 00 80 3f 00 00 80 3f 00 00 80 3f 00 00 80 3f
       1.0 1.0 1.0 1.0
000010 00 00 80 3f 00 00 80 3f 00 00 80 3f 00 00 80 3f
       1.0 1.0 1.0 1.0
000020 00 00 80 3f 00 00 80 3f 00 00 80 3f 00 00 80 3f
       1.0 1.0 1.0 1.0
000030 00 00 80 3f 00 00 80 3f 00 00 80 3f 00 00 80 3f
       1.0 1.0 1.0 1.0
000040 00 00 80 3f 00 00 80 3f 00 00 80 3f 00 00 80 3f
       1.0 1.0 1.0 1.0
000050 00 00 80 3f 00 00 80 3f 00 00 80 3f 00 00 80 3f
       1.0 1.0 1.0 1.0
000060 00 00 80 3f 00 00 80 3f 00 00 80 3f 00 00 80 3f
       1.0 1.0 1.0 1.0
000070 00 00 80 3f 00 00 80 3f 00 00 80 3f 00 00 80 3f
       1.0 1.0 1.0 1.0
000080 00 00 80 3f 00 00 80 3f 00 00 80 3f 00 00 80 3f
       1.0 1.0 1.0 1.0
000090 00 00 80 3f 00 00 80 3f 00 00 80 3f 00 00 80 3f
       1.0 1.0 1.0 1.0
0000a0 00 00 80 3f 00 00 80 3f 00 00 80 3f 00 00 80 3f
       1.0 1.0 1.0 1.0
0000b0 00 00 80 3f 00 00 80 3f 00 00 80 3f 00 00 80 3f
       1.0 1.0 1.0 1.0
0000c0 00 00 80 3f 00 00 80 3f 00 00 80 3f 00 00 80 3f
       1.0 1.0 1.0 1.0
0000d0 00 00 80 3f 00 00 80 3f 00 00 80 3f 00 00 80 3f
       1.0 1.0 1.0 1.0
0000e0 00 00 80 3f 00 00 80 3f 00 00 80 3f 00 00 80 3f
       1.0 1.0 1.0 1.0
0000f0 00 00 80 3f 00 00 80 3f 00 00 80 3f 00 00 80 3f
       1.0 1.0 1.0 1.0
000100 00 00 80 3f 00 00 80 3f 00 00 80 3f 00 00 80 3f
       1.0 1.0 1.0 1.0
000110 00 00 80 3f 00 00 80 3f 00 00 80 3f 00 00 80 3f
       1.0 1.0 1.0 1.0
000120 00 00 80 3f 00 00 80 3f 00 00 80 3f 00 00 80 3f
       1.0 1.0 1.0 1.0
000130 00 00 80 3f 00 00 80 3f 00 00 80 3f 00 00 80 3f
       1.0 1.0 1.0 1.0
000140 00 00 80 3f 00 00 80 3f 00 00 80 3f 00 00 80 3f
       1.0 1.0 1.0 1.0
000150 00 00 80 3f 00 00 80 3f 00 00 80 3f 00 00 80 3f
       1.0 1.0 1.0 1.0
000160 00 00 80 3f 00 00 80 3f 00 00 80 3f 00 00 80 3f
       1.0 1.0 1.0 1.0
000170 00 00 80 3f 00 00 80 3f 00 00 80 3f 00 00 80 3f
       1.0 1.0 1.0 1.0
000180 00 00 80 3f 00 00 80 3f 00 00 80 3f 00 00 80 3f
       1.0 1.0 1.0 1.0
000190 00 00 80 3f 00 00 80 3f 00 00 80 3f 00 00 80 3f
       1.0 1.0 1.0 1.0
0001a0 00 00 80 3f 00 00 80 3f 00 00 80 3f 00 00 80 3f
       1.0 1.0 1.0 1.0
0001b0 00 00 80 3f 00 00 80 3f 00 00 80 3f 00 00 80 3f
       1.0 1.0 1.0 1.0
0001c0 00 00 80 3f 00 00 80 3f 00 00 80 3f 00 00 80 3f
       1.0 1.0 1.0 1.0
0001d0 00 00 80 3f 00 00 80 3f 00 00 80 3f 00 00 80 3f
       1.0 1.0 1.0 1.0
0001e0 00 00 80 3f 00 00 80 3f 00 00 80 3f 00 00 80 3f
       1.0 1.0 1.0 1.0
0001f0 00 00 80 3f 00 00 80 3f 00 00 80 3f 00 00 80 3f
       1.0 1.0 1.0 1.0
000200 00 00 80 3f 00 00 80 3f 00 00 80 3f 00 00 80 3f
       1.0 1.0 1.0 1.0
000210 00 00 80 3f 00 00 80 3f 00 00 80 3f 00 00 80 3f
       1.0 1.0 1.0 1.0
000220 00 00 80 3f 00 00 80 3f 00 00 80 3f 00 00 80 3f
       1.0 1.0 1.0 1.0
000230 00 00 80 3f 00 00 80 3f 00 00 80 3f 00 00 80 3f
       1.0 1.0 1.0 1.0
000240 00 00 80 3f 00 00 80 3f 00 00 80 3f 00 00 80 3f
       1.0 1.0 1.0 1.0
000250 00 00 80 3f 00 00 80 3f 00 00 80 3f 00 00 80 3f
       1.0 1.0 1.0 1.0
000260 00 00 80 3f 00 00 80 3f 00 00 80 3f 00 00 80 3f
       1.0 1.0 1.0 1.0
000270 00 00 80 3f 00 00 80 3f 00 00 80 3f 00 00 80 3f
       1.0 1.0 1.0 1.0
000280 00 00 80 3f 00 00 80 3f 00 00 80 3f 00 00 80 3f
       1.0 1.0 1.0 1.0
000290 00 00 80 3f 00 00 80 3f 00 00 80 3f 00 00 80 3f
       1.0 1.0 1.0 1.0
0002a0 00 00 80 3f 00 00 80 3f 00 00 80 3f 00 00 80 3f
       1.0 1.0 1.0 1.0
0002b0 00 00 80 3f 00 00 80 3f 00 00 80 3f 00 00 80 3f
       1.0 1.0 1.0 1.0
0002c0 00 00 80 3f 00 00 80 3f 00 00 80 3f 00 00 80 3f
       1.0 1.0 1.0 1.0
0002d0 00 00 80 3f 00 00 80 3f 00 00 80 3f 00 00 80 3f
       1.0 1.0 1.0 1.0
0002e0 00 00 80 3f 00 00 80 3f 00 00 80 3f 00 00 80 3f
       1.0 1.0 1.0 1.0
0002f0 00 00 80 3f 00 00 80 3f 00 00 80 3f 00 00 80 3f
       1.0 1.0 1.0 1.0

kan.act_fun.0.scale_base f4 [32, 6]
000000 e1 d0 30 3c ee 7d 99 38 2d a5 86 3d b4 4b 69 3c
       0.010791988 7.319065e-05 0.065744735 0.01423924
000010 c7 08 03 bc f5 00 66 bc 58 36 1a 3c b8 d3 0e 3c
       -0.007997698 -0.014038314 0.009412371 0.00871747
000020 b4 ed 6c 3d 91 9e 9b bb 70 08 d7 3b 1a 7b 62 bb
       0.05784388 -0.004749127 0.006562285 -0.0034558238
000030 74 fc cf bb da c3 cb bb 11 2f ee bd e3 d1 37 3a
       -0.0063472334 -0.0062184157 -0.11630071 0.00070121716
000040 51 28 ab bb d7 0f 0b bc 23 b5 3c 3c de 28 71 bb
       -0.005223312 -0.008487663 0.011517796 -0.003679804
000050 e3 61 ad 3d 64 5e b2 bc 06 ac a8 bc 0a 84 1d 3b
       0.08465936 -0.021773525 -0.02058984 0.0024035
000060 e6 30 d3 3b ff a3 98 bc 2a 0a 54 ba e1 2e 04 3c
       0.006445038 -0.018632887 -0.0008088673 0.008067817
000070 27 36 83 3b d2 ac d3 3a d5 9f c8 3a 01 19 24 3c
       0.004004258 0.0016149527 0.0015306423 0.010015727
000080 89 a0 da ba 26 69 cf bb 1d 11 ac 3c 80 3f ea bc
       -0.0016679923 -0.0063296733 0.021004254 -0.028594732
000090 09 91 32 ba 86 1a 26 3c 48 d4 6e 3d 89 60 95 3b
       -0.0006811773 0.01013816 0.058307916 0.004558627
0000a0 90 ac 35 3b 1a ba 31 3b 14 2d 2a bc fc 6f 0e bb
       0.0027721263 0.0027118982 -0.010386724 -0.0021734228
0000b0 80 8c 99 3d d2 4e 80 3b 01 31 1c 3b c1 89 85 3c
       0.074975014 0.003915646 0.002383292 0.016301038
0000c0 ab 28 7d 3c 1b 8c 6d bc dd 3f 2a bb 9a 87 67 bc
       0.0154515905 -0.014498736 -0.0025978007 -0.014131451
0000d0 20 6e c6 3c 2a 88 e7 b9 c0 f6 10 bc 52 48 43 bc
       0.024222434 -0.00044161204 -0.008847892 -0.011919098
0000e0 0f e6 af 3d 10 16 71 3c 4d c6 a6 3b 49 5d c7 bb
       0.08588802 0.014714733 0.0050895573 -0.0060841185
0000f0 1c 5e ac 3b 62 3e c7 3a 36 36 e8 bd 77 bb 63 3c
       0.005260242 0.0015201087 -0.11338465 0.013899676
000100 c0 e4 1b 3c 3a 43 8b 3c 81 eb 6b 3a 23 7f 86 bb
       0.0095149875 0.01699983 0.00089996314 -0.0041045113
000110 76 82 83 bc ae 95 2c bc 4f f4 d8 b9 1d 79 ac bb
       -0.01605342 -0.010533733 -0.00041380755 -0.0052634613
000120 84 1c 7c bc 99 1e ad bb 27 7e 91 3d 8b 93 bf ba
       -0.015387658 -0.0052831885 0.0710414 -0.0014616115
000130 67 16 6a 3c bd 0a a0 bb 60 ba 4f 3c ad 9b 94 3b
       0.014287568 -0.0048840926 0.012678713 0.0045351596
000140 66 dd 8e bb 5d dd 38 3c 78 3d 10 bc b1 00 b5 3c
       -0.004359889 0.011283246 -0.008803718 0.022095056
000150 ab e7 21 3c aa f4 03 3c 29 6f 59 3d a6 bb 31 3c
       0.009881894 0.008053938 0.053084526 0.0108479615
000160 72 e1 09 bc 69 76 2e 3c 62 e7 a0 bb 12 2c 7c bc
       -0.008415567 0.010648348 -0.0049103955 -0.015391367
000170 ac b5 e8 bd b6 78 8c 3b 5a d5 87 3b a3 b1 c2 ba
       -0.11362776 0.004286851 0.0041453065 -0.0014853965
000180 10 1e 59 bb 06 0d 2f ba da 7e 98 3d 8d 34 a6 bb
       -0.003312949 -0.0006677661 0.0744607 -0.0050721825
000190 d6 00 dc 3b 23 40 36 bc b4 48 6e 3b 62 a9 76 bc
       0.006713967 -0.01112369 0.0036359252 -0.015055032
0001a0 0c f1 f9 3a 01 e2 12 3c ee a7 ad bc e0 50 8a bc
       0.001906903 0.008965016 -0.02119824 -0.016884267
0001b0 9d cb 31 bb 7a b5 8c 3b 11 32 8c 3d 17 6a 15 b9
       -0.002712942 0.0042940946 0.06845487 -0.00014249269
0001c0 4b a6 9f 3b 6c 26 90 bb cd 00 0b 3b 5d a8 ab 3a
       0.0048721186 -0.0043991115 0.0021210194 0.0013096441
0001d0 23 60 89 3d 1a db 44 bb 08 10 87 3b 62 e4 81 bb
       0.0670779 -0.0030037821 0.004121784 -0.003963993
0001e0 b5 35 2c 3c f8 c9 89 bc 31 59 81 bb cc dc 74 3c
       0.010510852 -0.016819939 -0.0039474 0.01494522
0001f0 4d a5 10 bc 34 e6 ba 3b 7f 11 01 3c 1b e0 a5 3c
       -0.008828473 0.005703712 0.007877707 0.020248463
000200 96 bb 52 bb 92 ce 03 3d bf c7 8c 3c df 29 26 3c
       -0.0032155267 0.032179423 0.01718509 0.010141819
000210 af a5 b6 bb ed 08 44 3c e5 2b eb bd 91 13 89 bc
       -0.0055739502 0.011965019 -0.114829816 -0.016732963
000220 df a9 20 bc b6 e6 ac 3a 23 53 fe bb 3f 0f 8f 3c
       -0.009806125 0.0013191316 -0.0077613755 0.017463325
000230 ab d7 e7 bd 1e 5a fa ba 4b 39 48 bc 60 a0 0d 3a
       -0.11320432 -0.0019100343 -0.012220691 0.0005402621
000240 1a f7 d2 38 69 90 8e bb ba 30 bf bd 2f 7a 52 ba
       0.000100596066 -0.004350711 -0.09335466 -0.0008029071
000250 7f e5 0a 3c 84 89 b6 bb 7b e4 76 3c 71 58 fa 3b
       0.008477568 -0.0055705924 0.015069122 0.0076399376
000260 36 c1 a1 3d 10 62 04 bc 00 8c 02 bc c5 7b d0 bb
       0.0789818 -0.008080021 -0.007967949 -0.0063624107
000270 c3 e1 99 3a 62 2e 40 3c 85 73 93 3d e6 ab f5 3b
       0.0011740256 0.0117298085 0.07199768 0.0074972985
000280 22 0d 5b 3b 67 ec de b8 25 9e 94 bc 9c 04 5c 3c
       0.0033424576 -0.00010629818 -0.018141815 0.013428833
000290 b8 9e 86 3d cc 28 7c bb fe 97 c2 bb fc 33 d9 bb
       0.06573242 -0.0038476465 -0.005938529 -0.0066285115
0002a0 19 37 12 3b 6d 80 41 bc c5 85 a3 3d 24 18 46 3c
       0.0022310673 -0.011810404 0.07984499 0.0120907165
0002b0 ab 40 d1 bb e3 97 40 3c aa f7 09 ba dd 57 8f 3c
       -0.006385883 0.011754963 -0.000526304 0.017497951
0002c0 e9 dd 7a 3d 25 e0 85 ba 79 43 9b bc bb 88 f0 bb
       0.061246786 -0.0010213895 -0.018953072 -0.0073405183
0002d0 ea f5 03 bb 18 75 a6 bc 81 4e de 3d 4f 3f 29 bc
       -0.002013559 -0.020319507 0.10854817 -0.010330035
0002e0 d1 0f 93 3b 86 f2 cb 3b 27 3e 8a 3c 9d 44 5d 3c
       0.0044879694 0.0062239794 0.01687534 0.013505128
0002f0 d3 80 e4 bd f0 f9 46 bb 55 67 2b bc be 88 46 bb
       -0.11157384 -0.0030361377 -0.010461648 -0.0030293907

kan.act_fun.0.scale_sp f4 [32, 6]
000000 aa e4 e3 3b eb 11 bf b9 c8 e7 50 3c ca 8b 92 bc
       0.006954749 -0.0003644371 0.012750573 -0.017888922
000010 d4 9f 24 bc 11 10 cd 3b fd cf 79 3b 4e c2 d5 ba
       -0.010047872 0.006258019 0.0038118355 -0.0016308518
000020 31 40 27 3d 99 4d 73 3b ee 38 12 bb 82 b1 84 3b
       0.040832702 0.003712511 -0.0022311765 0.004049481
000030 02 1e 1f bc 95 22 b2 3c d8 a5 4d bc 2e 52 80 bc
       -0.009711744 0.021745006 -0.012551747 -0.015664186
000040 be ae 22 bc c2 90 de 3a a1 c6 f9 3b bd c8 cf bc
       -0.009929357 0.0016980397 0.0076225554 -0.025364274
000050 d5 24 fb 3c 9b ea 12 bc 4d f6 cc 3b 41 24 03 bc
       0.030657211 -0.008967067 0.0062549473 -0.008004249
000060 73 28 83 39 f3 ce 40 ba bb c6 22 bc 1a b5 bf ba
       0.00025016404 -0.00073550566 -0.009935076 -0.0014626116
000070 ef 11 c7 3b 17 ef cc ba 66 6d 13 3b 1b 30 df ba
       0.006075136 -0.0015635219 0.0022495626 -0.0017027886
000080 d2 fc ec 3b 06 23 6a b9 6e 6f de ba bc 7e 5d 3b
       0.007232287 -0.00022329026 -0.0016970464 0.0033797463
000090 68 f2 05 3c 8c 8b af bb fb 97 35 3c 2f 5b 12 bc
       0.00817547 -0.0053572115 0.011083598 -0.008932873
0000a0 b4 03 fa 3a e0 b5 77 bb 79 f2 d1 bb 6d 9d ef 3b
       0.001907459 -0.0037797615 -0.006407079 0.007312468
0000b0 7f 14 b2 3c 5a be 5f bb 12 99 27 3b 31 fe a4 3c
       0.021738289 -0.0034140558 0.0025573415 0.02014074
0000c0 ed 7a 7a ba 6d 6a 0e bb 82 f0 f3 3a e4 a1 19 bb
       -0.00095550605 -0.0021730915 0.0018611106 -0.0023442442
0000d0 be 61 ce 3b 10 e0 93 bb d3 52 6f 3b 2e a0 52 3b
       0.006298273 -0.0045127943 0.0036517873 0.0032138932
0000e0 50 cd e1 3c bf 17 2d bc ab bc 14 3c 28 5f 6f bb
       0.027563721 -0.010564744 0.009078185 -0.0036525223
0000f0 0f 26 0f bc 03 45 81 bb 6e 49 84 3c ad 29 4c bc
       -0.008737101 -0.0039449944 0.016148295 -0.012461108
000100 84 dc 71 3c aa fa 12 3b 13 28 18 3b 54 98 90 bc
       0.014762048 0.002242724 0.0023217245 -0.01765076
000110 20 2d 35 3e a4 5f 93 3b 65 2b db 3c d1 48 91 bb
       0.17692995 0.0044974852 0.02675409 -0.004433729
000120 a5 35 d5 bb d0 12 be ba 9f c9 23 3e bf d2 04 39
       -0.006506639 -0.0014501456 0.15994881 0.0001266701
000130 70 35 33 bc 1f 99 ce 3b 73 7c 96 bb b2 73 cd b9
       -0.010938033 0.0063048746 -0.004592472 -0.00039186847
000140 66 da eb 3a 5b ec d0 ba ad 7d 1b ba ba 5d 3b 3a
       0.0017994165 -0.001593958 -0.0005931508 0.000714745
000150 56 cf 31 3b a6 45 1d bb 85 45 e8 3c 4a dc d2 3b
       0.0027131638 -0.0023997813 0.028353462 0.006434952
000160 4e a1 d3 39 b9 e7 10 bc 61 e7 0e b9 b7 0c 58 bc
       0.00040365238 -0.0088443095 -0.0001362837 -0.013186625
000170 dd 9c b0 3c 83 e5 f0 3c 2b 35 2e bc 7f 67 7a bc
       0.021559173 0.029406315 -0.010632793 -0.015283464
000180 87 4c 94 bc d4 7f dc bb 92 35 8f 3c 21 7c 55 bc
       -0.018102897 -0.0067291055 0.017481599 -0.013030083
000190 60 d9 a9 3c 09 95 9f 3b 48 3b 43 bb da 92 e1 3a
       0.020733535 0.0048700613 -0.0029789973 0.0017209903
0001a0 83 68 8a ba 4d 4c 0f bb 51 7c 5f ba a5 6f 7d 3b
       -0.0010559711 -0.0021865547 -0.00085252995 0.0038671282
0001b0 e6 0c 9e bb 5a 69 7b ba f1 b9 a9 bc 30 f3 3d bc
       -0.004823315 -0.0009590589 -0.020718547 -0.011593625
0001c0 89 f1 59 bc 44 2a 12 bc 74 4a 7d 3c 33 25 61 3b
       -0.013302215 -0.00892121 0.015459646 0.0034354448
0001d0 95 e0 ca 3c 7f bc 35 3b 30 af 3d 3c 88 ea 89 bb
       0.024765292 0.002773076 0.0115774125 -0.0042088665
0001e0 31 54 94 bb fd 66 84 b9 a9 bc 98 ba 4f dc 8e bb
       -0.004526638 -0.00025253734 -0.0011652905 -0.004359759
0001f0 45 fe 07 ba bf 90 47 bb 18 60 ce 3a 9e 93 8e ba
       -0.00051877304 -0.0030451266 0.0015745191 -0.0010877734
000200 d2 4a 32 3b b3 b5 02 bc 20 3a 7b 39 c4 ad ac b8
       0.002720524 -0.007977891 0.00023958879 -8.2339655e-05
000210 e6 84 e6 3b 8d 82 44 bd 69 56 d7 3c d7 75 7b 3c
       0.0070348857 -0.047976065 0.02628632 0.015347919
000220 4a d2 86 bc 2f 48 22 bb 34 07 e9 ba 5c 2b 39 bc
       -0.016457696 -0.0024762263 -0.0017778636 -0.011301842
000230 62 25 f4 bc 36 f0 02 3b 37 ea 83 bc 9f ea 55 ba
       -0.029802982 0.0019979603 -0.016102893 -0.00081602664
000240 cc 7a 63 3b 7d 66 e5 bb 02 ce 58 3c f0 82 38 bb
       0.0034710644 -0.007000743 0.01323271 -0.0028154217
000250 2b 49 ff 3c c8 6a 33 bb de 31 9f 3a 13 27 24 3c
       0.031162819 -0.002737688 0.0012145599 0.010019082
000260 b3 7d a7 3c e7 f1 32 3c de 9a 96 bb da 77 81 3b
       0.02044568 0.010921932 -0.0045960983 0.003951055
000270 c8 2d 2d bb 48 47 72 3c 4c 8f 3e 3c b6 2b 41 3c
       -0.0026424993 0.014787503 0.011630844 0.011790207
000280 7a db ca bc b8 ca db bb 0a 0d 90 3a f9 a5 27 bb
       -0.024762858 -0.0067075156 0.0010990214 -0.0025581105
000290 7f 79 9f 3c f8 18 c0 39 b7 a8 5e 3c 25 c0 3d 3b
       0.019467114 0.00036639697 0.013590029 0.0028953638
0002a0 61 2b 4e bc 3e 64 b0 bc a4 b5 5e 3c 27 41 35 bb
       -0.0125835845 -0.021532174 0.013593111 -0.0027657242
0002b0 3c 8a ab bb 66 fe 90 3c dd 57 ea bb 7b 22 9a 3b
       -0.0052349847 0.017699432 -0.0071515874 0.0047038174
0002c0 50 ee b9 3c 46 64 67 3c fc f8 16 bd 8e e2 3d bb
       0.022696644 0.014123028 -0.036858544 -0.0028974148
0002d0 40 d8 12 bc 26 80 05 3c 18 09 65 3d f3 57 87 39
       -0.008962691 0.008148229 0.055916876 0.00025814734
0002e0 a4 7c 33 bc 77 25 1e 3c 6c 40 7e 3b 18 5f 76 3c
       -0.01095501 0.009652487 0.0038795723 0.015037321
0002f0 f9 4e 28 3d 5a 87 21 3c 42 bd 15 3c 9c 73 fe ba
       0.04109094 0.0098589305 0.009139361 -0.0019413116

kan.act_fun.1.grid f4 [6, 17]
000000 00 00 00 c0 00 00 e0 bf 00 00 c0 bf 00 00 a0 bf
       -2.0 -1.75 -1.5 -1.25
000010 00 00 80 bf 00 00 40 bf 00 00 00 bf 00 00 80 be
       -1.0 -0.75 -0.5 -0.25
000020 00 00 00 00 00 00 80 3e 00 00 00 3f 00 00 40 3f
       0.0 0.25 0.5 0.75
000030 00 00 80 3f 00 00 a0 3f 00 00 c0 3f 00 00 e0 3f
       1.0 1.25 1.5 1.75
000040 00 00 00 40 00 00 00 c0 00 00 e0 bf 00 00 c0 bf
       2.0 -2.0 -1.75 -1.5
000050 00 00 a0 bf 00 00 80 bf 00 00 40 bf 00 00 00 bf
       -1.25 -1.0 -0.75 -0.5
000060 00 00 80 be 00 00 00 00 00 00 80 3e 00 00 00 3f
       -0.25 0.0 0.25 0.5
000070 00 00 40 3f 00 00 80 3f 00 00 a0 3f 00 00 c0 3f
       0.75 1.0 1.25 1.5
000080 00 00 e0 3f 00 00 00 40 00 00 00 c0 00 00 e0 bf
       1.75 2.0 -2.0 -1.75
000090 00 00 c0 bf 00 00 a0 bf 00 00 80 bf 00 00 40 bf
       -1.5 -1.25 -1.0 -0.75
0000a0 00 00 00 bf 00 00 80 be 00 00 00 00 00 00 80 3e
       -0.5 -0.25 0.0 0.25
0000b0 00 00 00 3f 00 00 40 3f 00 00 80 3f 00 00 a0 3f
       0.5 0.75 1.0 1.25
0000c0 00 00 c0 3f 00 00 e0 3f 00 00 00 40 00 00 00 c0
       1.5 1.75 2.0 -2.0
0000d0 00 00 e0 bf 00 00 c0 bf 00 00 a0 bf 00 00 80 bf
       -1.75 -1.5 -1.25 -1.0
0000e0 00 00 40 bf 00 00 00 bf 00 00 80 be 00 00 00 00
       -0.75 -0.5 -0.25 0.0
0000f0 00 00 80 3e 00 00 00 3f 00 00 40 3f 00 00 80 3f
       0.25 0.5 0.75 1.0
000100 00 00 a0 3f 00 00 c0 3f 00 00 e0 3f 00 00 00 40
       1.25 1.5 1.75 2.0
000110 00 00 00 c0 00 00 e0 bf 00 00 c0 bf 00 00 a0 bf
       -2.0 -1.75 -1.5 -1.25
000120 00 00 80 bf 00 00 40 bf 00 00 00 bf 00 00 80 be
       -1.0 -0.75 -0.5 -0.25
000130 00 00 00 00 00 00 80 3e 00 00 00 3f 00 00 40 3f
       0.0 0.25 0.5 0.75
000140 00 00 80 3f 00 00 a0 3f 00 00 c0 3f 00 00 e0 3f
       1.0 1.25 1.5 1.75
000150 00 00 00 40 00 00 00 c0 00 00 e0 bf 00 00 c0 bf
       2.0 -2.0 -1.75 -1.5
000160 00 00 a0 bf 00 00 80 bf 00 00 40 bf 00 00 00 bf
       -1.25 -1.0 -0.75 -0.5
000170 00 00 80 be 00 00 00 00 00 00 80 3e 00 00 00 3f
       -0.25 0.0 0.25 0.5
000180 00 00 40 3f 00 00 80 3f 00 00 a0 3f 00 00 c0 3f
       0.75 1.0 1.25 1.5
000190 00 00 e0 3f 00 00 00 40
       1.75 2.0

kan.act_fun.1.coef f4 [6, 1, 12]
000000 38 35 ce bb fa a0 ca bd fb ee b1 3c 76 4e 51 3e
       -0.0062929653 -0.09893985 0.0217204 0.20440087
000010 2c 55 6a bd 5f 09 b0 3c 2a 72 a2 bc 05 57 76 3d
       -0.057210132 0.021488843 -0.019829828 0.060141582
000020 76 94 8e be 2e e7 96 3c 43 a7 7e bd 3f 4b d9 bc
       -0.27847642 0.018420782 -0.062171232 -0.026525138
000030 05 0f be bc ad 7f 6b 3c f9 87 14 3d 85 d5 0c be
       -0.023200521 0.014373702 0.036262486 -0.13753326
000040 24 70 06 3d f9 b5 36 bc 24 f9 4a 3c a0 a6 08 bd
       0.03282179 -0.011151784 0.012388501 -0.03336203
000050 8f 91 e2 3e df d3 f0 bb 12 77 0c bc 23 31 2a bc
       0.44251677 -0.0073494758 -0.00857331 -0.010387692
000060 9f 2d 16 3d cd 5b 0a 3e 7e 63 7b bd bb c5 e4 3b
       0.0366646 0.13511582 -0.06137418 0.006981579
000070 c6 a8 da bd 78 db 08 bd e3 03 51 3d c7 e8 0c 3d
       -0.10676722 -0.033412427 0.051029097 0.03440168
000080 b1 2a 97 3c 3a d8 e1 be 94 2e 40 bf 11 39 1e c0
       0.018452974 -0.4411028 -0.7507107 -2.472233
000090 b2 0a c7 bb 69 f4 ba bc 64 92 bd bc 5e 4f c3 3e
       -0.006074273 -0.022821622 -0.023141094 0.3814649
0000a0 7a ad 36 bd c3 d9 59 3c 8e 8a 9e bc fa c1 6f 3d
       -0.044599034 0.013296547 -0.019353177 0.0585346
0000b0 a9 ad 43 be e3 65 3d 3d 35 e7 be 3a 82 44 1a 3c
       -0.19109215 0.046239745 0.0014564755 0.009415748
0000c0 cf 96 44 bd 87 92 c4 3d e7 20 f4 3d 31 c2 bb be
       -0.047995385 0.095982604 0.11920338 -0.36671594
0000d0 09 cf 9d 3d ea 2e ce bc 55 76 c2 3c e2 98 7d bd
       0.077055044 -0.025168855 0.023738066 -0.06191338
0000e0 48 84 3a 3f a5 12 59 bd fe 6d 1e 3d 21 dc 4a 3c
       0.72858095 -0.052996296 0.038679115 0.012381584
0000f0 19 d7 68 3d b3 ce 12 3e 7e fe 57 bd aa 08 ec 3e
       0.056845758 0.14336662 -0.052732937 0.4610036
000100 e9 b2 4b bd 11 53 85 3c 9f d1 95 bc 8e c8 71 3d
       -0.04973117 0.01627496 -0.018288432 0.059029154
000110 5d b8 e8 be b2 d7 92 3d 5c c0 ab bd f6 e4 f5 bc
       -0.45453158 0.07170047 -0.08386299 -0.030016404

kan.act_fun.1.mask f4 [6, 1]
000000 00 00 80 3f 00 00 80 3f 00 00 80 3f 00 00 80 3f
       1.0 1.0 1.0 1.0
000010 00 00 80 3f 00 00 80 3f
       1.0 1.0

kan.act_fun.1.scale_base f4 [6, 1]
000000 90 01 ab ba 9d 40 80 b9 37 be 35 bd 86 d3 99 3a
       -0.001304673 -0.00024462203 -0.044370856 0.0011736013
000010 50 7a b8 3a c2 c3 45 ba
       0.0014074538 -0.0007544124

kan.act_fun.1.scale_sp f4 [6, 1]
000000 82 37 91 ba 51 2b df b9 1d 33 ea 3c 34 cd 13 3b
       -0.0011079165 -0.00042566148 0.028588826 0.002255273
000010 24 d5 ac 37 7b 59 66 3a
       2.060325e-05 0.00087871373

kan.symbolic_fun.0.mask f4 [6, 32]
000000 00 00 00 00 00 00 00 00 00 00 00 00 00 00 00 00
       0.0 0.0 0.0 0.0
000010 00 00 00 00 00 00 00 00 00 00 00 00 00 00 00 00
       0.0 0.0 0.0 0.0
000020 00 00 00 00 00 00 00 00 00 00 00 00 00 00 00 00
       0.0 0.0 0.0 0.0
000030 00 00 00 00 00 00 00 00 00 00 00 00 00 00 00 00
       0.0 0.0 0.0 0.0
000040 00 00 00 00 00 00 00 00 00 00 00 00 00 00 00 00
       0.0 0.0 0.0 0.0
000050 00 00 00 00 00 00 00 00 00 00 00 00 00 00 00 00
       0.0 0.0 0.0 0.0
000060 00 00 00 00 00 00 00 00 00 00 00 00 00 00 00 00
       0.0 0.0 0.0 0.0
000070 00 00 00 00 00 00 00 00 00 00 00 00 00 00 00 00
       0.0 0.0 0.0 0.0
000080 00 00 00 00 00 00 00 00 00 00 00 00 00 00 00 00
       0.0 0.0 0.0 0.0
000090 00 00 00 00 00 00 00 00 00 00 00 00 00 00 00 00
       0.0 0.0 0.0 0.0
0000a0 00 00 00 00 00 00 00 00 00 00 00 00 00 00 00 00
       0.0 0.0 0.0 0.0
0000b0 00 00 00 00 00 00 00 00 00 00 00 00 00 00 00 00
       0.0 0.0 0.0 0.0
0000c0 00 00 00 00 00 00 00 00 00 00 00 00 00 00 00 00
       0.0 0.0 0.0 0.0
0000d0 00 00 00 00 00 00 00 00 00 00 00 00 00 00 00 00
       0.0 0.0 0.0 0.0
0000e0 00 00 00 00 00 00 00 00 00 00 00 00 00 00 00 00
       0.0 0.0 0.0 0.0
0000f0 00 00 00 00 00 00 00 00 00 00 00 00 00 00 00 00
       0.0 0.0 0.0 0.0
000100 00 00 00 00 00 00 00 00 00 00 00 00 00 00 00 00
       0.0 0.0 0.0 0.0
000110 00 00 00 00 00 00 00 00 00 00 00 00 00 00 00 00
       0.0 0.0 0.0 0.0
000120 00 00 00 00 00 00 00 00 00 00 00 00 00 00 00 00
       0.0 0.0 0.0 0.0
000130 00 00 00 00 00 00 00 00 00 00 00 00 00 00 00 00
       0.0 0.0 0.0 0.0
000140 00 00 00 00 00 00 00 00 00 00 00 00 00 00 00 00
       0.0 0.0 0.0 0.0
000150 00 00 00 00 00 00 00 00 00 00 00 00 00 00 00 00
       0.0 0.0 0.0 0.0
000160 00 00 00 00 00 00 00 00 00 00 00 00 00 00 00 00
       0.0 0.0 0.0 0.0
000170 00 00 00 00 00 00 00 00 00 00 00 00 00 00 00 00
       0.0 0.0 0.0 0.0
000180 00 00 00 00 00 00 00 00 00 00 00 00 00 00 00 00
       0.0 0.0 0.0 0.0
000190 00 00 00 00 00 00 00 00 00 00 00 00 00 00 00 00
       0.0 0.0 0.0 0.0
0001a0 00 00 00 00 00 00 00 00 00 00 00 00 00 00 00 00
       0.0 0.0 0.0 0.0
0001b0 00 00 00 00 00 00 00 00 00 00 00 00 00 00 00 00
       0.0 0.0 0.0 0.0
0001c0 00 00 00 00 00 00 00 00 00 00 00 00 00 00 00 00
       0.0 0.0 0.0 0.0
0001d0 00 00 00 00 00 00 00 00 00 00 00 00 00 00 00 00
       0.0 0.0 0.0 0.0
0001e0 00 00 00 00 00 00 00 00 00 00 00 00 00 00 00 00
       0.0 0.0 0.0 0.0
0001f0 00 00 00 00 00 00 00 00 00 00 00 00 00 00 00 00
       0.0 0.0 0.0 0.0
000200 00 00 00 00 00 00 00 00 00 00 00 00 00 00 00 00
       0.0 0.0 0.0 0.0
000210 00 00 00 00 00 00 00 00 00 00 00 00 00 00 00 00
       0.0 0.0 0.0 0.0
000220 00 00 00 00 00 00 00 00 00 00 00 00 00 00 00 00
       0.0 0.0 0.0 0.0
000230 00 00 00 00 00 00 00 00 00 00 00 00 00 00 00 00
       0.0 0.0 0.0 0.0
000240 00 00 00 00 00 00 00 00 00 00 00 00 00 00 00 00
       0.0 0.0 0.0 0.0
000250 00 00 00 00 00 00 00 00 00 00 00 00 00 00 00 00
       0.0 0.0 0.0 0.0
000260 00 00 00 00 00 00 00 00 00 00 00 00 00 00 00 00
       0.0 0.0 0.0 0.0
000270 00 00 00 00 00 00 00 00 00 00 00 00 00 00 00 00
       0.0 0.0 0.0 0.0
000280 00 00 00 00 00 00 00 00 00 00 00 00 00 00 00 00
       0.0 0.0 0.0 0.0
000290 00 00 00 00 00 00 00 00 00 00 00 00 00 00 00 00
       0.0 0.0 0.0 0.0
0002a0 00 00 00 00 00 00 00 00 00 00 00 00 00 00 00 00
       0.0 0.0 0.0 0.0
0002b0 00 00 00 00 00 00 00 00 00 00 00 00 00 00 00 00
       0.0 0.0 0.0 0.0
0002c0 00 00 00 00 00 00 00 00 00 00 00 00 00 00 00 00
       0.0 0.0 0.0 0.0
0002d0 00 00 00 00 00 00 00 00 00 00 00 00 00 00 00 00
       0.0 0.0 0.0 0.0
0002e0 00 00 00 00 00 00 00 00 00 00 00 00 00 00 00 00
       0.0 0.0 0.0 0.0
0002f0 00 00 00 00 00 00 00 00 00 00 00 00 00 00 00 00
       0.0 0.0 0.0 0.0

kan.symbolic_fun.0.affine f4 [6, 32, 4]
000000 00 00 00 00 00 00 00 00 00 00 00 00 00 00 00 00
       0.0 0.0 0.0 0.0
000010 00 00 00 00 00 00 00 00 00 00 00 00 00 00 00 00
       0.0 0.0 0.0 0.0
000020 00 00 00 00 00 00 00 00 00 00 00 00 00 00 00 00
       0.0 0.0 0.0 0.0
000030 00 00 00 00 00 00 00 00 00 00 00 00 00 00 00 00
       0.0 0.0 0.0 0.0
000040 00 00 00 00 00 00 00 00 00 00 00 00 00 00 00 00
       0.0 0.0 0.0 0.0
000050 00 00 00 00 00 00 00 00 00 00 00 00 00 00 00 00
       0.0 0.0 0.0 0.0
000060 00 00 00 00 00 00 00 00 00 00 00 00 00 00 00 00
       0.0 0.0 0.0 0.0
000070 00 00 00 00 00 00 00 00 00 00 00 00 00 00 00 00
       0.0 0.0 0.0 0.0
000080 00 00 00 00 00 00 00 00 00 00 00 00 00 00 00 00
       0.0 0.0 0.0 0.0
000090 00 00 00 00 00 00 00 00 00 00 00 00 00 00 00 00
       0.0 0.0 0.0 0.0
0000a0 00 00 00 00 00 00 00 00 00 00 00 00 00 00 00 00
       0.0 0.0 0.0 0.0
0000b0 00 00 00 00 00 00 00 00 00 00 00 00 00 00 00 00
       0.0 0.0 0.0 0.0
0000c0 00 00 00 00 00 00 00 00 00 00 00 00 00 00 00 00
       0.0 0.0 0.0 0.0
0000d0 00 00 00 00 00 00 00 00 00 00 00 00 00 00 00 00
       0.0 0.0 0.0 0.0
0000e0 00 00 00 00 00 00 00 00 00 00 00 00 00 00 00 00
       0.0 0.0 0.0 0.0
0000f0 00 00 00 00 00 00 00 00 00 00 00 00 00 00 00 00
       0.0 0.0 0.0 0.0
000100 00 00 00 00 00 00 00 00 00 00 00 00 00 00 00 00
       0.0 0.0 0.0 0.0
000110 00 00 00 00 00 00 00 00 00 00 00 00 00 00 00 00
       0.0 0.0 0.0 0.0
000120 00 00 00 00 00 00 00 00 00 00 00 00 00 00 00 00
       0.0 0.0 0.0 0.0
000130 00 00 00 00 00 00 00 00 00 00 00 00 00 00 00 00
       0.0 0.0 0.0 0.0
000140 00 00 00 00 00 00 00 00 00 00 00 00 00 00 00 00
       0.0 0.0 0.0 0.0
000150 00 00 00 00 00 00 00 00 00 00 00 00 00 00 00 00
       0.0 0.0 0.0 0.0
000160 00 00 00 00 00 00 00 00 00 00 00 00 00 00 00 00
       0.0 0.0 0.0 0.0
000170 00 00 00 00 00 00 00 00 00 00 00 00 00 00 00 00
       0.0 0.0 0.0 0.0
000180 00 00 00 00 00 00 00 00 00 00 00 00 00 00 00 00
       0.0 0.0 0.0 0.0
000190 00 00 00 00 00 00 00 00 00 00 00 00 00 00 00 00
       0.0 0.0 0.0 0.0
0001a0 00 00 00 00 00 00 00 00 00 00 00 00 00 00 00 00
       0.0 0.0 0.0 0.0
0001b0 00 00 00 00 00 00 00 00 00 00 00 00 00 00 00 00
       0.0 0.0 0.0 0.0
0001c0 00 00 00 00 00 00 00 00 00 00 00 00 00 00 00 00
       0.0 0.0 0.0 0.0
0001d0 00 00 00 00 00 00 00 00 00 00 00 00 00 00 00 00
       0.0 0.0 0.0 0.0
0001e0 00 00 00 00 00 00 00 00 00 00 00 00 00 00 00 00
       0.0 0.0 0.0 0.0
0001f0 00 00 00 00 00 00 00 00 00 00 00 00 00 00 00 00
       0.0 0.0 0.0 0.0
000200 00 00 00 00 00 00 00 00 00 00 00 00 00 00 00 00
       0.0 0.0 0.0 0.0
000210 00 00 00 00 00 00 00 00 00 00 00 00 00 00 00 00
       0.0 0.0 0.0 0.0
000220 00 00 00 00 00 00 00 00 00 00 00 00 00 00 00 00
       0.0 0.0 0.0 0.0
000230 00 00 00 00 00 00 00 00 00 00 00 00 00 00 00 00
       0.0 0.0 0.0 0.0
000240 00 00 00 00 00 00 00 00 00 00 00 00 00 00 00 00
       0.0 0.0 0.0 0.0
000250 00 00 00 00 00 00 00 00 00 00 00 00 00 00 00 00
       0.0 0.0 0.0 0.0
000260 00 00 00 00 00 00 00 00 00 00 00 00 00 00 00 00
       0.0 0.0 0.0 0.0
000270 00 00 00 00 00 00 00 00 00 00 00 00 00 00 00 00
       0.0 0.0 0.0 0.0
000280 00 00 00 00 00 00 00 00 00 00 00 00 00 00 00 00
       0.0 0.0 0.0 0.0
000290 00 00 00 00 00 00 00 00 00 00 00 00 00 00 00 00
       0.0 0.0 0.0 0.0
0002a0 00 00 00 00 00 00 00 00 00 00 00 00 00 00 00 00
       0.0 0.0 0.0 0.0
0002b0 00 00 00 00 00 00 00 00 00 00 00 00 00 00 00 00
       0.0 0.0 0.0 0.0
0002c0 00 00 00 00 00 00 00 00 00 00 00 00 00 00 00 00
       0.0 0.0 0.0 0.0
0002d0 00 00 00 00 00 00 00 00 00 00 00 00 00 00 00 00
       0.0 0.0 0.0 0.0
0002e0 00 00 00 00 00 00 00 00 00 00 00 00 00 00 00 00
       0.0 0.0 0.0 0.0
0002f0 00 00 00 00 00 00 00 00 00 00 00 00 00 00 00 00
       0.0 0.0 0.0 0.0
000300 00 00 00 00 00 00 00 00 00 00 00 00 00 00 00 00
       0.0 0.0 0.0 0.0
000310 00 00 00 00 00 00 00 00 00 00 00 00 00 00 00 00
       0.0 0.0 0.0 0.0
000320 00 00 00 00 00 00 00 00 00 00 00 00 00 00 00 00
       0.0 0.0 0.0 0.0
000330 00 00 00 00 00 00 00 00 00 00 00 00 00 00 00 00
       0.0 0.0 0.0 0.0
000340 00 00 00 00 00 00 00 00 00 00 00 00 00 00 00 00
       0.0 0.0 0.0 0.0
000350 00 00 00 00 00 00 00 00 00 00 00 00 00 00 00 00
       0.0 0.0 0.0 0.0
000360 00 00 00 00 00 00 00 00 00 00 00 00 00 00 00 00
       0.0 0.0 0.0 0.0
000370 00 00 00 00 00 00 00 00 00 00 00 00 00 00 00 00
       0.0 0.0 0.0 0.0
000380 00 00 00 00 00 00 00 00 00 00 00 00 00 00 00 00
       0.0 0.0 0.0 0.0
000390 00 00 00 00 00 00 00 00 00 00 00 00 00 00 00 00
       0.0 0.0 0.0 0.0
0003a0 00 00 00 00 00 00 00 00 00 00 00 00 00 00 00 00
       0.0 0.0 0.0 0.0
0003b0 00 00 00 00 00 00 00 00 00 00 00 00 00 00 00 00
       0.0 0.0 0.0 0.0
0003c0 00 00 00 00 00 00 00 00 00 00 00 00 00 00 00 00
       0.0 0.0 0.0 0.0
0003d0 00 00 00 00 00 00 00 00 00 00 00 00 00 00 00 00
       0.0 0.0 0.0 0.0
0003e0 00 00 00 00 00 00 00 00 00 00 00 00 00 00 00 00
       0.0 0.0 0.0 0.0
0003f0 00 00 00 00 00 00 00 00 00 00 00 00 00 00 00 00
       0.0 0.0 0.0 0.0

kan.symbolic_fun.1.mask f4 [1, 6]
000000 00 00 00 00 00 00 00 00 00 00 00 00 00 00 00 00
       0.0 0.0 0.0 0.0
000010 00 00 00 00 00 00 00 00
       0.0 0.0

kan.symbolic_fun.1.affine f4 [1, 6, 4]
000000 00 00 00 00 00 00 00 00 00 00 00 00 00 00 00 00
       0.0 0.0 0.0 0.0
000010 00 00 00 00 00 00 00 00 00 00 00 00 00 00 00 00
       0.0 0.0 0.0 0.0
000020 00 00 00 00 00 00 00 00 00 00 00 00 00 00 00 00
       0.0 0.0 0.0 0.0
000030 00 00 00 00 00 00 00 00 00 00 00 00 00 00 00 00
       0.0 0.0 0.0 0.0
000040 00 00 00 00 00 00 00 00 00 00 00 00 00 00 00 00
       0.0 0.0 0.0 0.0
000050 00 00 00 00 00 00 00 00 00 00 00 00 00 00 00 00
       0.0 0.0 0.0 0.0
